{
  "nodes": [
    {
      "op": "null", 
      "name": "data", 
      "inputs": []
    }, 
    {
      "op": "Pad", 
      "name": "flow_imagenet/Conv3d_1a_7x7/conv_3d//pad", 
      "attr": {
        "constant_value": "0", 
        "mode": "constant", 
        "pad_width": "(0, 0, 0, 0, 2, 3, 2, 3, 2, 3)"
      }, 
      "inputs": [[0, 0, 0]]
    }, 
    {
      "op": "null", 
      "name": "flow_imagenet/Conv3d_1a_7x7/conv_3d/_weight", 
      "attr": {
        "dilate": "(1, 1, 1)", 
        "kernel": "(7, 7, 7)", 
        "no_bias": "True", 
        "num_filter": "64", 
        "pad": "(0, 0, 0)", 
        "stride": "(2, 2, 2)"
      }, 
      "inputs": []
    }, 
    {
      "op": "Convolution", 
      "name": "flow_imagenet/Conv3d_1a_7x7/conv_3d/", 
      "attr": {
        "dilate": "(1, 1, 1)", 
        "kernel": "(7, 7, 7)", 
        "no_bias": "True", 
        "num_filter": "64", 
        "pad": "(0, 0, 0)", 
        "stride": "(2, 2, 2)"
      }, 
      "inputs": [[1, 0, 0], [2, 0, 0]]
    }, 
    {
      "op": "null", 
      "name": "flow_imagenet/Conv3d_1a_7x7/batch_norm/_gamma", 
      "attr": {
        "eps": "0.001", 
        "fix_gamma": "True", 
        "momentum": "0.001", 
        "use_global_stats": "True"
      }, 
      "inputs": []
    }, 
    {
      "op": "null", 
      "name": "flow_imagenet/Conv3d_1a_7x7/batch_norm/_beta", 
      "attr": {
        "eps": "0.001", 
        "fix_gamma": "True", 
        "momentum": "0.001", 
        "use_global_stats": "True"
      }, 
      "inputs": []
    }, 
    {
      "op": "null", 
      "name": "flow_imagenet/Conv3d_1a_7x7/batch_norm/_moving_mean", 
      "attr": {
        "__init__": "[\"zero\", {}]", 
        "eps": "0.001", 
        "fix_gamma": "True", 
        "momentum": "0.001", 
        "use_global_stats": "True"
      }, 
      "inputs": []
    }, 
    {
      "op": "null", 
      "name": "flow_imagenet/Conv3d_1a_7x7/batch_norm/_moving_var", 
      "attr": {
        "__init__": "[\"one\", {}]", 
        "eps": "0.001", 
        "fix_gamma": "True", 
        "momentum": "0.001", 
        "use_global_stats": "True"
      }, 
      "inputs": []
    }, 
    {
      "op": "BatchNorm", 
      "name": "flow_imagenet/Conv3d_1a_7x7/batch_norm/", 
      "attr": {
        "eps": "0.001", 
        "fix_gamma": "True", 
        "momentum": "0.001", 
        "use_global_stats": "True"
      }, 
      "inputs": [[3, 0, 0], [4, 0, 0], [5, 0, 0], [6, 0, 1], [7, 0, 1]]
    }, 
    {
      "op": "Activation", 
      "name": "flow_imagenet/Conv3d_1a_7x7/relu/", 
      "attr": {"act_type": "relu"}, 
      "inputs": [[8, 0, 0]]
    }, 
    {
      "op": "Pad", 
      "name": "flow_imagenet/MaxPool3d_2a_3x3//pad", 
      "attr": {
        "constant_value": "0", 
        "mode": "constant", 
        "pad_width": "(0, 0, 0, 0, 0, 0, 0, 1, 0, 1)"
      }, 
      "inputs": [[9, 0, 0]]
    }, 
    {
      "op": "Pooling", 
      "name": "flow_imagenet/MaxPool3d_2a_3x3/", 
      "attr": {
        "kernel": "(1, 3, 3)", 
        "pad": "(0, 0, 0)", 
        "pool_type": "max", 
        "pooling_convention": "valid", 
        "stride": "(1, 2, 2)"
      }, 
      "inputs": [[10, 0, 0]]
    }, 
    {
      "op": "null", 
      "name": "flow_imagenet/Conv3d_2b_1x1/conv_3d/_weight", 
      "attr": {
        "dilate": "(1, 1, 1)", 
        "kernel": "(1, 1, 1)", 
        "no_bias": "True", 
        "num_filter": "64", 
        "pad": "(0, 0, 0)", 
        "stride": "(1, 1, 1)"
      }, 
      "inputs": []
    }, 
    {
      "op": "Convolution", 
      "name": "flow_imagenet/Conv3d_2b_1x1/conv_3d/", 
      "attr": {
        "dilate": "(1, 1, 1)", 
        "kernel": "(1, 1, 1)", 
        "no_bias": "True", 
        "num_filter": "64", 
        "pad": "(0, 0, 0)", 
        "stride": "(1, 1, 1)"
      }, 
      "inputs": [[11, 0, 0], [12, 0, 0]]
    }, 
    {
      "op": "null", 
      "name": "flow_imagenet/Conv3d_2b_1x1/batch_norm/_gamma", 
      "attr": {
        "eps": "0.001", 
        "fix_gamma": "True", 
        "momentum": "0.001", 
        "use_global_stats": "True"
      }, 
      "inputs": []
    }, 
    {
      "op": "null", 
      "name": "flow_imagenet/Conv3d_2b_1x1/batch_norm/_beta", 
      "attr": {
        "eps": "0.001", 
        "fix_gamma": "True", 
        "momentum": "0.001", 
        "use_global_stats": "True"
      }, 
      "inputs": []
    }, 
    {
      "op": "null", 
      "name": "flow_imagenet/Conv3d_2b_1x1/batch_norm/_moving_mean", 
      "attr": {
        "__init__": "[\"zero\", {}]", 
        "eps": "0.001", 
        "fix_gamma": "True", 
        "momentum": "0.001", 
        "use_global_stats": "True"
      }, 
      "inputs": []
    }, 
    {
      "op": "null", 
      "name": "flow_imagenet/Conv3d_2b_1x1/batch_norm/_moving_var", 
      "attr": {
        "__init__": "[\"one\", {}]", 
        "eps": "0.001", 
        "fix_gamma": "True", 
        "momentum": "0.001", 
        "use_global_stats": "True"
      }, 
      "inputs": []
    }, 
    {
      "op": "BatchNorm", 
      "name": "flow_imagenet/Conv3d_2b_1x1/batch_norm/", 
      "attr": {
        "eps": "0.001", 
        "fix_gamma": "True", 
        "momentum": "0.001", 
        "use_global_stats": "True"
      }, 
      "inputs": [[13, 0, 0], [14, 0, 0], [15, 0, 0], [16, 0, 1], [17, 0, 1]]
    }, 
    {
      "op": "Activation", 
      "name": "flow_imagenet/Conv3d_2b_1x1/relu/", 
      "attr": {"act_type": "relu"}, 
      "inputs": [[18, 0, 0]]
    }, 
    {
      "op": "null", 
      "name": "flow_imagenet/Conv3d_2c_3x3/conv_3d/_weight", 
      "attr": {
        "dilate": "(1, 1, 1)", 
        "kernel": "(3, 3, 3)", 
        "no_bias": "True", 
        "num_filter": "192", 
        "pad": "(1, 1, 1)", 
        "stride": "(1, 1, 1)"
      }, 
      "inputs": []
    }, 
    {
      "op": "Convolution", 
      "name": "flow_imagenet/Conv3d_2c_3x3/conv_3d/", 
      "attr": {
        "dilate": "(1, 1, 1)", 
        "kernel": "(3, 3, 3)", 
        "no_bias": "True", 
        "num_filter": "192", 
        "pad": "(1, 1, 1)", 
        "stride": "(1, 1, 1)"
      }, 
      "inputs": [[19, 0, 0], [20, 0, 0]]
    }, 
    {
      "op": "null", 
      "name": "flow_imagenet/Conv3d_2c_3x3/batch_norm/_gamma", 
      "attr": {
        "eps": "0.001", 
        "fix_gamma": "True", 
        "momentum": "0.001", 
        "use_global_stats": "True"
      }, 
      "inputs": []
    }, 
    {
      "op": "null", 
      "name": "flow_imagenet/Conv3d_2c_3x3/batch_norm/_beta", 
      "attr": {
        "eps": "0.001", 
        "fix_gamma": "True", 
        "momentum": "0.001", 
        "use_global_stats": "True"
      }, 
      "inputs": []
    }, 
    {
      "op": "null", 
      "name": "flow_imagenet/Conv3d_2c_3x3/batch_norm/_moving_mean", 
      "attr": {
        "__init__": "[\"zero\", {}]", 
        "eps": "0.001", 
        "fix_gamma": "True", 
        "momentum": "0.001", 
        "use_global_stats": "True"
      }, 
      "inputs": []
    }, 
    {
      "op": "null", 
      "name": "flow_imagenet/Conv3d_2c_3x3/batch_norm/_moving_var", 
      "attr": {
        "__init__": "[\"one\", {}]", 
        "eps": "0.001", 
        "fix_gamma": "True", 
        "momentum": "0.001", 
        "use_global_stats": "True"
      }, 
      "inputs": []
    }, 
    {
      "op": "BatchNorm", 
      "name": "flow_imagenet/Conv3d_2c_3x3/batch_norm/", 
      "attr": {
        "eps": "0.001", 
        "fix_gamma": "True", 
        "momentum": "0.001", 
        "use_global_stats": "True"
      }, 
      "inputs": [[21, 0, 0], [22, 0, 0], [23, 0, 0], [24, 0, 1], [25, 0, 1]]
    }, 
    {
      "op": "Activation", 
      "name": "flow_imagenet/Conv3d_2c_3x3/relu/", 
      "attr": {"act_type": "relu"}, 
      "inputs": [[26, 0, 0]]
    }, 
    {
      "op": "Pad", 
      "name": "flow_imagenet/MaxPool3d_3a_3x3//pad", 
      "attr": {
        "constant_value": "0", 
        "mode": "constant", 
        "pad_width": "(0, 0, 0, 0, 0, 0, 0, 1, 0, 1)"
      }, 
      "inputs": [[27, 0, 0]]
    }, 
    {
      "op": "Pooling", 
      "name": "flow_imagenet/MaxPool3d_3a_3x3/", 
      "attr": {
        "kernel": "(1, 3, 3)", 
        "pad": "(0, 0, 0)", 
        "pool_type": "max", 
        "pooling_convention": "valid", 
        "stride": "(1, 2, 2)"
      }, 
      "inputs": [[28, 0, 0]]
    }, 
    {
      "op": "null", 
      "name": "flow_imagenet/Mixed_3b/Branch_0/Conv3d_0a_1x1/conv_3d/_weight", 
      "attr": {
        "dilate": "(1, 1, 1)", 
        "kernel": "(1, 1, 1)", 
        "no_bias": "True", 
        "num_filter": "64", 
        "pad": "(0, 0, 0)", 
        "stride": "(1, 1, 1)"
      }, 
      "inputs": []
    }, 
    {
      "op": "Convolution", 
      "name": "flow_imagenet/Mixed_3b/Branch_0/Conv3d_0a_1x1/conv_3d/", 
      "attr": {
        "dilate": "(1, 1, 1)", 
        "kernel": "(1, 1, 1)", 
        "no_bias": "True", 
        "num_filter": "64", 
        "pad": "(0, 0, 0)", 
        "stride": "(1, 1, 1)"
      }, 
      "inputs": [[29, 0, 0], [30, 0, 0]]
    }, 
    {
      "op": "null", 
      "name": "flow_imagenet/Mixed_3b/Branch_0/Conv3d_0a_1x1/batch_norm/_gamma", 
      "attr": {
        "eps": "0.001", 
        "fix_gamma": "True", 
        "momentum": "0.001", 
        "use_global_stats": "True"
      }, 
      "inputs": []
    }, 
    {
      "op": "null", 
      "name": "flow_imagenet/Mixed_3b/Branch_0/Conv3d_0a_1x1/batch_norm/_beta", 
      "attr": {
        "eps": "0.001", 
        "fix_gamma": "True", 
        "momentum": "0.001", 
        "use_global_stats": "True"
      }, 
      "inputs": []
    }, 
    {
      "op": "null", 
      "name": "flow_imagenet/Mixed_3b/Branch_0/Conv3d_0a_1x1/batch_norm/_moving_mean", 
      "attr": {
        "__init__": "[\"zero\", {}]", 
        "eps": "0.001", 
        "fix_gamma": "True", 
        "momentum": "0.001", 
        "use_global_stats": "True"
      }, 
      "inputs": []
    }, 
    {
      "op": "null", 
      "name": "flow_imagenet/Mixed_3b/Branch_0/Conv3d_0a_1x1/batch_norm/_moving_var", 
      "attr": {
        "__init__": "[\"one\", {}]", 
        "eps": "0.001", 
        "fix_gamma": "True", 
        "momentum": "0.001", 
        "use_global_stats": "True"
      }, 
      "inputs": []
    }, 
    {
      "op": "BatchNorm", 
      "name": "flow_imagenet/Mixed_3b/Branch_0/Conv3d_0a_1x1/batch_norm/", 
      "attr": {
        "eps": "0.001", 
        "fix_gamma": "True", 
        "momentum": "0.001", 
        "use_global_stats": "True"
      }, 
      "inputs": [[31, 0, 0], [32, 0, 0], [33, 0, 0], [34, 0, 1], [35, 0, 1]]
    }, 
    {
      "op": "Activation", 
      "name": "flow_imagenet/Mixed_3b/Branch_0/Conv3d_0a_1x1/relu/", 
      "attr": {"act_type": "relu"}, 
      "inputs": [[36, 0, 0]]
    }, 
    {
      "op": "null", 
      "name": "flow_imagenet/Mixed_3b/Branch_1/Conv3d_0a_1x1/conv_3d/_weight", 
      "attr": {
        "dilate": "(1, 1, 1)", 
        "kernel": "(1, 1, 1)", 
        "no_bias": "True", 
        "num_filter": "96", 
        "pad": "(0, 0, 0)", 
        "stride": "(1, 1, 1)"
      }, 
      "inputs": []
    }, 
    {
      "op": "Convolution", 
      "name": "flow_imagenet/Mixed_3b/Branch_1/Conv3d_0a_1x1/conv_3d/", 
      "attr": {
        "dilate": "(1, 1, 1)", 
        "kernel": "(1, 1, 1)", 
        "no_bias": "True", 
        "num_filter": "96", 
        "pad": "(0, 0, 0)", 
        "stride": "(1, 1, 1)"
      }, 
      "inputs": [[29, 0, 0], [38, 0, 0]]
    }, 
    {
      "op": "null", 
      "name": "flow_imagenet/Mixed_3b/Branch_1/Conv3d_0a_1x1/batch_norm/_gamma", 
      "attr": {
        "eps": "0.001", 
        "fix_gamma": "True", 
        "momentum": "0.001", 
        "use_global_stats": "True"
      }, 
      "inputs": []
    }, 
    {
      "op": "null", 
      "name": "flow_imagenet/Mixed_3b/Branch_1/Conv3d_0a_1x1/batch_norm/_beta", 
      "attr": {
        "eps": "0.001", 
        "fix_gamma": "True", 
        "momentum": "0.001", 
        "use_global_stats": "True"
      }, 
      "inputs": []
    }, 
    {
      "op": "null", 
      "name": "flow_imagenet/Mixed_3b/Branch_1/Conv3d_0a_1x1/batch_norm/_moving_mean", 
      "attr": {
        "__init__": "[\"zero\", {}]", 
        "eps": "0.001", 
        "fix_gamma": "True", 
        "momentum": "0.001", 
        "use_global_stats": "True"
      }, 
      "inputs": []
    }, 
    {
      "op": "null", 
      "name": "flow_imagenet/Mixed_3b/Branch_1/Conv3d_0a_1x1/batch_norm/_moving_var", 
      "attr": {
        "__init__": "[\"one\", {}]", 
        "eps": "0.001", 
        "fix_gamma": "True", 
        "momentum": "0.001", 
        "use_global_stats": "True"
      }, 
      "inputs": []
    }, 
    {
      "op": "BatchNorm", 
      "name": "flow_imagenet/Mixed_3b/Branch_1/Conv3d_0a_1x1/batch_norm/", 
      "attr": {
        "eps": "0.001", 
        "fix_gamma": "True", 
        "momentum": "0.001", 
        "use_global_stats": "True"
      }, 
      "inputs": [[39, 0, 0], [40, 0, 0], [41, 0, 0], [42, 0, 1], [43, 0, 1]]
    }, 
    {
      "op": "Activation", 
      "name": "flow_imagenet/Mixed_3b/Branch_1/Conv3d_0a_1x1/relu/", 
      "attr": {"act_type": "relu"}, 
      "inputs": [[44, 0, 0]]
    }, 
    {
      "op": "null", 
      "name": "flow_imagenet/Mixed_3b/Branch_1/Conv3d_0b_3x3/conv_3d/_weight", 
      "attr": {
        "dilate": "(1, 1, 1)", 
        "kernel": "(3, 3, 3)", 
        "no_bias": "True", 
        "num_filter": "128", 
        "pad": "(1, 1, 1)", 
        "stride": "(1, 1, 1)"
      }, 
      "inputs": []
    }, 
    {
      "op": "Convolution", 
      "name": "flow_imagenet/Mixed_3b/Branch_1/Conv3d_0b_3x3/conv_3d/", 
      "attr": {
        "dilate": "(1, 1, 1)", 
        "kernel": "(3, 3, 3)", 
        "no_bias": "True", 
        "num_filter": "128", 
        "pad": "(1, 1, 1)", 
        "stride": "(1, 1, 1)"
      }, 
      "inputs": [[45, 0, 0], [46, 0, 0]]
    }, 
    {
      "op": "null", 
      "name": "flow_imagenet/Mixed_3b/Branch_1/Conv3d_0b_3x3/batch_norm/_gamma", 
      "attr": {
        "eps": "0.001", 
        "fix_gamma": "True", 
        "momentum": "0.001", 
        "use_global_stats": "True"
      }, 
      "inputs": []
    }, 
    {
      "op": "null", 
      "name": "flow_imagenet/Mixed_3b/Branch_1/Conv3d_0b_3x3/batch_norm/_beta", 
      "attr": {
        "eps": "0.001", 
        "fix_gamma": "True", 
        "momentum": "0.001", 
        "use_global_stats": "True"
      }, 
      "inputs": []
    }, 
    {
      "op": "null", 
      "name": "flow_imagenet/Mixed_3b/Branch_1/Conv3d_0b_3x3/batch_norm/_moving_mean", 
      "attr": {
        "__init__": "[\"zero\", {}]", 
        "eps": "0.001", 
        "fix_gamma": "True", 
        "momentum": "0.001", 
        "use_global_stats": "True"
      }, 
      "inputs": []
    }, 
    {
      "op": "null", 
      "name": "flow_imagenet/Mixed_3b/Branch_1/Conv3d_0b_3x3/batch_norm/_moving_var", 
      "attr": {
        "__init__": "[\"one\", {}]", 
        "eps": "0.001", 
        "fix_gamma": "True", 
        "momentum": "0.001", 
        "use_global_stats": "True"
      }, 
      "inputs": []
    }, 
    {
      "op": "BatchNorm", 
      "name": "flow_imagenet/Mixed_3b/Branch_1/Conv3d_0b_3x3/batch_norm/", 
      "attr": {
        "eps": "0.001", 
        "fix_gamma": "True", 
        "momentum": "0.001", 
        "use_global_stats": "True"
      }, 
      "inputs": [[47, 0, 0], [48, 0, 0], [49, 0, 0], [50, 0, 1], [51, 0, 1]]
    }, 
    {
      "op": "Activation", 
      "name": "flow_imagenet/Mixed_3b/Branch_1/Conv3d_0b_3x3/relu/", 
      "attr": {"act_type": "relu"}, 
      "inputs": [[52, 0, 0]]
    }, 
    {
      "op": "null", 
      "name": "flow_imagenet/Mixed_3b/Branch_2/Conv3d_0a_1x1/conv_3d/_weight", 
      "attr": {
        "dilate": "(1, 1, 1)", 
        "kernel": "(1, 1, 1)", 
        "no_bias": "True", 
        "num_filter": "16", 
        "pad": "(0, 0, 0)", 
        "stride": "(1, 1, 1)"
      }, 
      "inputs": []
    }, 
    {
      "op": "Convolution", 
      "name": "flow_imagenet/Mixed_3b/Branch_2/Conv3d_0a_1x1/conv_3d/", 
      "attr": {
        "dilate": "(1, 1, 1)", 
        "kernel": "(1, 1, 1)", 
        "no_bias": "True", 
        "num_filter": "16", 
        "pad": "(0, 0, 0)", 
        "stride": "(1, 1, 1)"
      }, 
      "inputs": [[29, 0, 0], [54, 0, 0]]
    }, 
    {
      "op": "null", 
      "name": "flow_imagenet/Mixed_3b/Branch_2/Conv3d_0a_1x1/batch_norm/_gamma", 
      "attr": {
        "eps": "0.001", 
        "fix_gamma": "True", 
        "momentum": "0.001", 
        "use_global_stats": "True"
      }, 
      "inputs": []
    }, 
    {
      "op": "null", 
      "name": "flow_imagenet/Mixed_3b/Branch_2/Conv3d_0a_1x1/batch_norm/_beta", 
      "attr": {
        "eps": "0.001", 
        "fix_gamma": "True", 
        "momentum": "0.001", 
        "use_global_stats": "True"
      }, 
      "inputs": []
    }, 
    {
      "op": "null", 
      "name": "flow_imagenet/Mixed_3b/Branch_2/Conv3d_0a_1x1/batch_norm/_moving_mean", 
      "attr": {
        "__init__": "[\"zero\", {}]", 
        "eps": "0.001", 
        "fix_gamma": "True", 
        "momentum": "0.001", 
        "use_global_stats": "True"
      }, 
      "inputs": []
    }, 
    {
      "op": "null", 
      "name": "flow_imagenet/Mixed_3b/Branch_2/Conv3d_0a_1x1/batch_norm/_moving_var", 
      "attr": {
        "__init__": "[\"one\", {}]", 
        "eps": "0.001", 
        "fix_gamma": "True", 
        "momentum": "0.001", 
        "use_global_stats": "True"
      }, 
      "inputs": []
    }, 
    {
      "op": "BatchNorm", 
      "name": "flow_imagenet/Mixed_3b/Branch_2/Conv3d_0a_1x1/batch_norm/", 
      "attr": {
        "eps": "0.001", 
        "fix_gamma": "True", 
        "momentum": "0.001", 
        "use_global_stats": "True"
      }, 
      "inputs": [[55, 0, 0], [56, 0, 0], [57, 0, 0], [58, 0, 1], [59, 0, 1]]
    }, 
    {
      "op": "Activation", 
      "name": "flow_imagenet/Mixed_3b/Branch_2/Conv3d_0a_1x1/relu/", 
      "attr": {"act_type": "relu"}, 
      "inputs": [[60, 0, 0]]
    }, 
    {
      "op": "null", 
      "name": "flow_imagenet/Mixed_3b/Branch_2/Conv3d_0b_3x3/conv_3d/_weight", 
      "attr": {
        "dilate": "(1, 1, 1)", 
        "kernel": "(3, 3, 3)", 
        "no_bias": "True", 
        "num_filter": "32", 
        "pad": "(1, 1, 1)", 
        "stride": "(1, 1, 1)"
      }, 
      "inputs": []
    }, 
    {
      "op": "Convolution", 
      "name": "flow_imagenet/Mixed_3b/Branch_2/Conv3d_0b_3x3/conv_3d/", 
      "attr": {
        "dilate": "(1, 1, 1)", 
        "kernel": "(3, 3, 3)", 
        "no_bias": "True", 
        "num_filter": "32", 
        "pad": "(1, 1, 1)", 
        "stride": "(1, 1, 1)"
      }, 
      "inputs": [[61, 0, 0], [62, 0, 0]]
    }, 
    {
      "op": "null", 
      "name": "flow_imagenet/Mixed_3b/Branch_2/Conv3d_0b_3x3/batch_norm/_gamma", 
      "attr": {
        "eps": "0.001", 
        "fix_gamma": "True", 
        "momentum": "0.001", 
        "use_global_stats": "True"
      }, 
      "inputs": []
    }, 
    {
      "op": "null", 
      "name": "flow_imagenet/Mixed_3b/Branch_2/Conv3d_0b_3x3/batch_norm/_beta", 
      "attr": {
        "eps": "0.001", 
        "fix_gamma": "True", 
        "momentum": "0.001", 
        "use_global_stats": "True"
      }, 
      "inputs": []
    }, 
    {
      "op": "null", 
      "name": "flow_imagenet/Mixed_3b/Branch_2/Conv3d_0b_3x3/batch_norm/_moving_mean", 
      "attr": {
        "__init__": "[\"zero\", {}]", 
        "eps": "0.001", 
        "fix_gamma": "True", 
        "momentum": "0.001", 
        "use_global_stats": "True"
      }, 
      "inputs": []
    }, 
    {
      "op": "null", 
      "name": "flow_imagenet/Mixed_3b/Branch_2/Conv3d_0b_3x3/batch_norm/_moving_var", 
      "attr": {
        "__init__": "[\"one\", {}]", 
        "eps": "0.001", 
        "fix_gamma": "True", 
        "momentum": "0.001", 
        "use_global_stats": "True"
      }, 
      "inputs": []
    }, 
    {
      "op": "BatchNorm", 
      "name": "flow_imagenet/Mixed_3b/Branch_2/Conv3d_0b_3x3/batch_norm/", 
      "attr": {
        "eps": "0.001", 
        "fix_gamma": "True", 
        "momentum": "0.001", 
        "use_global_stats": "True"
      }, 
      "inputs": [[63, 0, 0], [64, 0, 0], [65, 0, 0], [66, 0, 1], [67, 0, 1]]
    }, 
    {
      "op": "Activation", 
      "name": "flow_imagenet/Mixed_3b/Branch_2/Conv3d_0b_3x3/relu/", 
      "attr": {"act_type": "relu"}, 
      "inputs": [[68, 0, 0]]
    }, 
    {
      "op": "Pooling", 
      "name": "flow_imagenet/Mixed_3b/Branch_2/MaxPool3d_0a_3x3", 
      "attr": {
        "kernel": "(3, 3, 3)", 
        "pad": "(1, 1, 1)", 
        "pool_type": "max", 
        "pooling_convention": "valid", 
        "stride": "(1, 1, 1)"
      }, 
      "inputs": [[29, 0, 0]]
    }, 
    {
      "op": "null", 
      "name": "flow_imagenet/Mixed_3b/Branch_3/Conv3d_0b_1x1/conv_3d/_weight", 
      "attr": {
        "dilate": "(1, 1, 1)", 
        "kernel": "(1, 1, 1)", 
        "no_bias": "True", 
        "num_filter": "32", 
        "pad": "(0, 0, 0)", 
        "stride": "(1, 1, 1)"
      }, 
      "inputs": []
    }, 
    {
      "op": "Convolution", 
      "name": "flow_imagenet/Mixed_3b/Branch_3/Conv3d_0b_1x1/conv_3d/", 
      "attr": {
        "dilate": "(1, 1, 1)", 
        "kernel": "(1, 1, 1)", 
        "no_bias": "True", 
        "num_filter": "32", 
        "pad": "(0, 0, 0)", 
        "stride": "(1, 1, 1)"
      }, 
      "inputs": [[70, 0, 0], [71, 0, 0]]
    }, 
    {
      "op": "null", 
      "name": "flow_imagenet/Mixed_3b/Branch_3/Conv3d_0b_1x1/batch_norm/_gamma", 
      "attr": {
        "eps": "0.001", 
        "fix_gamma": "True", 
        "momentum": "0.001", 
        "use_global_stats": "True"
      }, 
      "inputs": []
    }, 
    {
      "op": "null", 
      "name": "flow_imagenet/Mixed_3b/Branch_3/Conv3d_0b_1x1/batch_norm/_beta", 
      "attr": {
        "eps": "0.001", 
        "fix_gamma": "True", 
        "momentum": "0.001", 
        "use_global_stats": "True"
      }, 
      "inputs": []
    }, 
    {
      "op": "null", 
      "name": "flow_imagenet/Mixed_3b/Branch_3/Conv3d_0b_1x1/batch_norm/_moving_mean", 
      "attr": {
        "__init__": "[\"zero\", {}]", 
        "eps": "0.001", 
        "fix_gamma": "True", 
        "momentum": "0.001", 
        "use_global_stats": "True"
      }, 
      "inputs": []
    }, 
    {
      "op": "null", 
      "name": "flow_imagenet/Mixed_3b/Branch_3/Conv3d_0b_1x1/batch_norm/_moving_var", 
      "attr": {
        "__init__": "[\"one\", {}]", 
        "eps": "0.001", 
        "fix_gamma": "True", 
        "momentum": "0.001", 
        "use_global_stats": "True"
      }, 
      "inputs": []
    }, 
    {
      "op": "BatchNorm", 
      "name": "flow_imagenet/Mixed_3b/Branch_3/Conv3d_0b_1x1/batch_norm/", 
      "attr": {
        "eps": "0.001", 
        "fix_gamma": "True", 
        "momentum": "0.001", 
        "use_global_stats": "True"
      }, 
      "inputs": [[72, 0, 0], [73, 0, 0], [74, 0, 0], [75, 0, 1], [76, 0, 1]]
    }, 
    {
      "op": "Activation", 
      "name": "flow_imagenet/Mixed_3b/Branch_3/Conv3d_0b_1x1/relu/", 
      "attr": {"act_type": "relu"}, 
      "inputs": [[77, 0, 0]]
    }, 
    {
      "op": "Concat", 
      "name": "flow_imagenet/Mixed_3b/Concat", 
      "attr": {
        "dim": "1", 
        "num_args": "4"
      }, 
      "inputs": [[37, 0, 0], [53, 0, 0], [69, 0, 0], [78, 0, 0]]
    }, 
    {
      "op": "null", 
      "name": "flow_imagenet/Mixed_3c/Branch_0/Conv3d_0a_1x1/conv_3d/_weight", 
      "attr": {
        "dilate": "(1, 1, 1)", 
        "kernel": "(1, 1, 1)", 
        "no_bias": "True", 
        "num_filter": "128", 
        "pad": "(0, 0, 0)", 
        "stride": "(1, 1, 1)"
      }, 
      "inputs": []
    }, 
    {
      "op": "Convolution", 
      "name": "flow_imagenet/Mixed_3c/Branch_0/Conv3d_0a_1x1/conv_3d/", 
      "attr": {
        "dilate": "(1, 1, 1)", 
        "kernel": "(1, 1, 1)", 
        "no_bias": "True", 
        "num_filter": "128", 
        "pad": "(0, 0, 0)", 
        "stride": "(1, 1, 1)"
      }, 
      "inputs": [[79, 0, 0], [80, 0, 0]]
    }, 
    {
      "op": "null", 
      "name": "flow_imagenet/Mixed_3c/Branch_0/Conv3d_0a_1x1/batch_norm/_gamma", 
      "attr": {
        "eps": "0.001", 
        "fix_gamma": "True", 
        "momentum": "0.001", 
        "use_global_stats": "True"
      }, 
      "inputs": []
    }, 
    {
      "op": "null", 
      "name": "flow_imagenet/Mixed_3c/Branch_0/Conv3d_0a_1x1/batch_norm/_beta", 
      "attr": {
        "eps": "0.001", 
        "fix_gamma": "True", 
        "momentum": "0.001", 
        "use_global_stats": "True"
      }, 
      "inputs": []
    }, 
    {
      "op": "null", 
      "name": "flow_imagenet/Mixed_3c/Branch_0/Conv3d_0a_1x1/batch_norm/_moving_mean", 
      "attr": {
        "__init__": "[\"zero\", {}]", 
        "eps": "0.001", 
        "fix_gamma": "True", 
        "momentum": "0.001", 
        "use_global_stats": "True"
      }, 
      "inputs": []
    }, 
    {
      "op": "null", 
      "name": "flow_imagenet/Mixed_3c/Branch_0/Conv3d_0a_1x1/batch_norm/_moving_var", 
      "attr": {
        "__init__": "[\"one\", {}]", 
        "eps": "0.001", 
        "fix_gamma": "True", 
        "momentum": "0.001", 
        "use_global_stats": "True"
      }, 
      "inputs": []
    }, 
    {
      "op": "BatchNorm", 
      "name": "flow_imagenet/Mixed_3c/Branch_0/Conv3d_0a_1x1/batch_norm/", 
      "attr": {
        "eps": "0.001", 
        "fix_gamma": "True", 
        "momentum": "0.001", 
        "use_global_stats": "True"
      }, 
      "inputs": [[81, 0, 0], [82, 0, 0], [83, 0, 0], [84, 0, 1], [85, 0, 1]]
    }, 
    {
      "op": "Activation", 
      "name": "flow_imagenet/Mixed_3c/Branch_0/Conv3d_0a_1x1/relu/", 
      "attr": {"act_type": "relu"}, 
      "inputs": [[86, 0, 0]]
    }, 
    {
      "op": "null", 
      "name": "flow_imagenet/Mixed_3c/Branch_1/Conv3d_0a_1x1/conv_3d/_weight", 
      "attr": {
        "dilate": "(1, 1, 1)", 
        "kernel": "(1, 1, 1)", 
        "no_bias": "True", 
        "num_filter": "128", 
        "pad": "(0, 0, 0)", 
        "stride": "(1, 1, 1)"
      }, 
      "inputs": []
    }, 
    {
      "op": "Convolution", 
      "name": "flow_imagenet/Mixed_3c/Branch_1/Conv3d_0a_1x1/conv_3d/", 
      "attr": {
        "dilate": "(1, 1, 1)", 
        "kernel": "(1, 1, 1)", 
        "no_bias": "True", 
        "num_filter": "128", 
        "pad": "(0, 0, 0)", 
        "stride": "(1, 1, 1)"
      }, 
      "inputs": [[79, 0, 0], [88, 0, 0]]
    }, 
    {
      "op": "null", 
      "name": "flow_imagenet/Mixed_3c/Branch_1/Conv3d_0a_1x1/batch_norm/_gamma", 
      "attr": {
        "eps": "0.001", 
        "fix_gamma": "True", 
        "momentum": "0.001", 
        "use_global_stats": "True"
      }, 
      "inputs": []
    }, 
    {
      "op": "null", 
      "name": "flow_imagenet/Mixed_3c/Branch_1/Conv3d_0a_1x1/batch_norm/_beta", 
      "attr": {
        "eps": "0.001", 
        "fix_gamma": "True", 
        "momentum": "0.001", 
        "use_global_stats": "True"
      }, 
      "inputs": []
    }, 
    {
      "op": "null", 
      "name": "flow_imagenet/Mixed_3c/Branch_1/Conv3d_0a_1x1/batch_norm/_moving_mean", 
      "attr": {
        "__init__": "[\"zero\", {}]", 
        "eps": "0.001", 
        "fix_gamma": "True", 
        "momentum": "0.001", 
        "use_global_stats": "True"
      }, 
      "inputs": []
    }, 
    {
      "op": "null", 
      "name": "flow_imagenet/Mixed_3c/Branch_1/Conv3d_0a_1x1/batch_norm/_moving_var", 
      "attr": {
        "__init__": "[\"one\", {}]", 
        "eps": "0.001", 
        "fix_gamma": "True", 
        "momentum": "0.001", 
        "use_global_stats": "True"
      }, 
      "inputs": []
    }, 
    {
      "op": "BatchNorm", 
      "name": "flow_imagenet/Mixed_3c/Branch_1/Conv3d_0a_1x1/batch_norm/", 
      "attr": {
        "eps": "0.001", 
        "fix_gamma": "True", 
        "momentum": "0.001", 
        "use_global_stats": "True"
      }, 
      "inputs": [[89, 0, 0], [90, 0, 0], [91, 0, 0], [92, 0, 1], [93, 0, 1]]
    }, 
    {
      "op": "Activation", 
      "name": "flow_imagenet/Mixed_3c/Branch_1/Conv3d_0a_1x1/relu/", 
      "attr": {"act_type": "relu"}, 
      "inputs": [[94, 0, 0]]
    }, 
    {
      "op": "null", 
      "name": "flow_imagenet/Mixed_3c/Branch_1/Conv3d_0b_3x3/conv_3d/_weight", 
      "attr": {
        "dilate": "(1, 1, 1)", 
        "kernel": "(3, 3, 3)", 
        "no_bias": "True", 
        "num_filter": "192", 
        "pad": "(1, 1, 1)", 
        "stride": "(1, 1, 1)"
      }, 
      "inputs": []
    }, 
    {
      "op": "Convolution", 
      "name": "flow_imagenet/Mixed_3c/Branch_1/Conv3d_0b_3x3/conv_3d/", 
      "attr": {
        "dilate": "(1, 1, 1)", 
        "kernel": "(3, 3, 3)", 
        "no_bias": "True", 
        "num_filter": "192", 
        "pad": "(1, 1, 1)", 
        "stride": "(1, 1, 1)"
      }, 
      "inputs": [[95, 0, 0], [96, 0, 0]]
    }, 
    {
      "op": "null", 
      "name": "flow_imagenet/Mixed_3c/Branch_1/Conv3d_0b_3x3/batch_norm/_gamma", 
      "attr": {
        "eps": "0.001", 
        "fix_gamma": "True", 
        "momentum": "0.001", 
        "use_global_stats": "True"
      }, 
      "inputs": []
    }, 
    {
      "op": "null", 
      "name": "flow_imagenet/Mixed_3c/Branch_1/Conv3d_0b_3x3/batch_norm/_beta", 
      "attr": {
        "eps": "0.001", 
        "fix_gamma": "True", 
        "momentum": "0.001", 
        "use_global_stats": "True"
      }, 
      "inputs": []
    }, 
    {
      "op": "null", 
      "name": "flow_imagenet/Mixed_3c/Branch_1/Conv3d_0b_3x3/batch_norm/_moving_mean", 
      "attr": {
        "__init__": "[\"zero\", {}]", 
        "eps": "0.001", 
        "fix_gamma": "True", 
        "momentum": "0.001", 
        "use_global_stats": "True"
      }, 
      "inputs": []
    }, 
    {
      "op": "null", 
      "name": "flow_imagenet/Mixed_3c/Branch_1/Conv3d_0b_3x3/batch_norm/_moving_var", 
      "attr": {
        "__init__": "[\"one\", {}]", 
        "eps": "0.001", 
        "fix_gamma": "True", 
        "momentum": "0.001", 
        "use_global_stats": "True"
      }, 
      "inputs": []
    }, 
    {
      "op": "BatchNorm", 
      "name": "flow_imagenet/Mixed_3c/Branch_1/Conv3d_0b_3x3/batch_norm/", 
      "attr": {
        "eps": "0.001", 
        "fix_gamma": "True", 
        "momentum": "0.001", 
        "use_global_stats": "True"
      }, 
      "inputs": [[97, 0, 0], [98, 0, 0], [99, 0, 0], [100, 0, 1], [101, 0, 1]]
    }, 
    {
      "op": "Activation", 
      "name": "flow_imagenet/Mixed_3c/Branch_1/Conv3d_0b_3x3/relu/", 
      "attr": {"act_type": "relu"}, 
      "inputs": [[102, 0, 0]]
    }, 
    {
      "op": "null", 
      "name": "flow_imagenet/Mixed_3c/Branch_2/Conv3d_0a_1x1/conv_3d/_weight", 
      "attr": {
        "dilate": "(1, 1, 1)", 
        "kernel": "(1, 1, 1)", 
        "no_bias": "True", 
        "num_filter": "32", 
        "pad": "(0, 0, 0)", 
        "stride": "(1, 1, 1)"
      }, 
      "inputs": []
    }, 
    {
      "op": "Convolution", 
      "name": "flow_imagenet/Mixed_3c/Branch_2/Conv3d_0a_1x1/conv_3d/", 
      "attr": {
        "dilate": "(1, 1, 1)", 
        "kernel": "(1, 1, 1)", 
        "no_bias": "True", 
        "num_filter": "32", 
        "pad": "(0, 0, 0)", 
        "stride": "(1, 1, 1)"
      }, 
      "inputs": [[79, 0, 0], [104, 0, 0]]
    }, 
    {
      "op": "null", 
      "name": "flow_imagenet/Mixed_3c/Branch_2/Conv3d_0a_1x1/batch_norm/_gamma", 
      "attr": {
        "eps": "0.001", 
        "fix_gamma": "True", 
        "momentum": "0.001", 
        "use_global_stats": "True"
      }, 
      "inputs": []
    }, 
    {
      "op": "null", 
      "name": "flow_imagenet/Mixed_3c/Branch_2/Conv3d_0a_1x1/batch_norm/_beta", 
      "attr": {
        "eps": "0.001", 
        "fix_gamma": "True", 
        "momentum": "0.001", 
        "use_global_stats": "True"
      }, 
      "inputs": []
    }, 
    {
      "op": "null", 
      "name": "flow_imagenet/Mixed_3c/Branch_2/Conv3d_0a_1x1/batch_norm/_moving_mean", 
      "attr": {
        "__init__": "[\"zero\", {}]", 
        "eps": "0.001", 
        "fix_gamma": "True", 
        "momentum": "0.001", 
        "use_global_stats": "True"
      }, 
      "inputs": []
    }, 
    {
      "op": "null", 
      "name": "flow_imagenet/Mixed_3c/Branch_2/Conv3d_0a_1x1/batch_norm/_moving_var", 
      "attr": {
        "__init__": "[\"one\", {}]", 
        "eps": "0.001", 
        "fix_gamma": "True", 
        "momentum": "0.001", 
        "use_global_stats": "True"
      }, 
      "inputs": []
    }, 
    {
      "op": "BatchNorm", 
      "name": "flow_imagenet/Mixed_3c/Branch_2/Conv3d_0a_1x1/batch_norm/", 
      "attr": {
        "eps": "0.001", 
        "fix_gamma": "True", 
        "momentum": "0.001", 
        "use_global_stats": "True"
      }, 
      "inputs": [[105, 0, 0], [106, 0, 0], [107, 0, 0], [108, 0, 1], [109, 0, 1]]
    }, 
    {
      "op": "Activation", 
      "name": "flow_imagenet/Mixed_3c/Branch_2/Conv3d_0a_1x1/relu/", 
      "attr": {"act_type": "relu"}, 
      "inputs": [[110, 0, 0]]
    }, 
    {
      "op": "null", 
      "name": "flow_imagenet/Mixed_3c/Branch_2/Conv3d_0b_3x3/conv_3d/_weight", 
      "attr": {
        "dilate": "(1, 1, 1)", 
        "kernel": "(3, 3, 3)", 
        "no_bias": "True", 
        "num_filter": "96", 
        "pad": "(1, 1, 1)", 
        "stride": "(1, 1, 1)"
      }, 
      "inputs": []
    }, 
    {
      "op": "Convolution", 
      "name": "flow_imagenet/Mixed_3c/Branch_2/Conv3d_0b_3x3/conv_3d/", 
      "attr": {
        "dilate": "(1, 1, 1)", 
        "kernel": "(3, 3, 3)", 
        "no_bias": "True", 
        "num_filter": "96", 
        "pad": "(1, 1, 1)", 
        "stride": "(1, 1, 1)"
      }, 
      "inputs": [[111, 0, 0], [112, 0, 0]]
    }, 
    {
      "op": "null", 
      "name": "flow_imagenet/Mixed_3c/Branch_2/Conv3d_0b_3x3/batch_norm/_gamma", 
      "attr": {
        "eps": "0.001", 
        "fix_gamma": "True", 
        "momentum": "0.001", 
        "use_global_stats": "True"
      }, 
      "inputs": []
    }, 
    {
      "op": "null", 
      "name": "flow_imagenet/Mixed_3c/Branch_2/Conv3d_0b_3x3/batch_norm/_beta", 
      "attr": {
        "eps": "0.001", 
        "fix_gamma": "True", 
        "momentum": "0.001", 
        "use_global_stats": "True"
      }, 
      "inputs": []
    }, 
    {
      "op": "null", 
      "name": "flow_imagenet/Mixed_3c/Branch_2/Conv3d_0b_3x3/batch_norm/_moving_mean", 
      "attr": {
        "__init__": "[\"zero\", {}]", 
        "eps": "0.001", 
        "fix_gamma": "True", 
        "momentum": "0.001", 
        "use_global_stats": "True"
      }, 
      "inputs": []
    }, 
    {
      "op": "null", 
      "name": "flow_imagenet/Mixed_3c/Branch_2/Conv3d_0b_3x3/batch_norm/_moving_var", 
      "attr": {
        "__init__": "[\"one\", {}]", 
        "eps": "0.001", 
        "fix_gamma": "True", 
        "momentum": "0.001", 
        "use_global_stats": "True"
      }, 
      "inputs": []
    }, 
    {
      "op": "BatchNorm", 
      "name": "flow_imagenet/Mixed_3c/Branch_2/Conv3d_0b_3x3/batch_norm/", 
      "attr": {
        "eps": "0.001", 
        "fix_gamma": "True", 
        "momentum": "0.001", 
        "use_global_stats": "True"
      }, 
      "inputs": [[113, 0, 0], [114, 0, 0], [115, 0, 0], [116, 0, 1], [117, 0, 1]]
    }, 
    {
      "op": "Activation", 
      "name": "flow_imagenet/Mixed_3c/Branch_2/Conv3d_0b_3x3/relu/", 
      "attr": {"act_type": "relu"}, 
      "inputs": [[118, 0, 0]]
    }, 
    {
      "op": "Pooling", 
      "name": "flow_imagenet/Mixed_3c/Branch_2/MaxPool3d_0a_3x3", 
      "attr": {
        "kernel": "(3, 3, 3)", 
        "pad": "(1, 1, 1)", 
        "pool_type": "max", 
        "pooling_convention": "valid", 
        "stride": "(1, 1, 1)"
      }, 
      "inputs": [[79, 0, 0]]
    }, 
    {
      "op": "null", 
      "name": "flow_imagenet/Mixed_3c/Branch_3/Conv3d_0b_1x1/conv_3d/_weight", 
      "attr": {
        "dilate": "(1, 1, 1)", 
        "kernel": "(1, 1, 1)", 
        "no_bias": "True", 
        "num_filter": "64", 
        "pad": "(0, 0, 0)", 
        "stride": "(1, 1, 1)"
      }, 
      "inputs": []
    }, 
    {
      "op": "Convolution", 
      "name": "flow_imagenet/Mixed_3c/Branch_3/Conv3d_0b_1x1/conv_3d/", 
      "attr": {
        "dilate": "(1, 1, 1)", 
        "kernel": "(1, 1, 1)", 
        "no_bias": "True", 
        "num_filter": "64", 
        "pad": "(0, 0, 0)", 
        "stride": "(1, 1, 1)"
      }, 
      "inputs": [[120, 0, 0], [121, 0, 0]]
    }, 
    {
      "op": "null", 
      "name": "flow_imagenet/Mixed_3c/Branch_3/Conv3d_0b_1x1/batch_norm/_gamma", 
      "attr": {
        "eps": "0.001", 
        "fix_gamma": "True", 
        "momentum": "0.001", 
        "use_global_stats": "True"
      }, 
      "inputs": []
    }, 
    {
      "op": "null", 
      "name": "flow_imagenet/Mixed_3c/Branch_3/Conv3d_0b_1x1/batch_norm/_beta", 
      "attr": {
        "eps": "0.001", 
        "fix_gamma": "True", 
        "momentum": "0.001", 
        "use_global_stats": "True"
      }, 
      "inputs": []
    }, 
    {
      "op": "null", 
      "name": "flow_imagenet/Mixed_3c/Branch_3/Conv3d_0b_1x1/batch_norm/_moving_mean", 
      "attr": {
        "__init__": "[\"zero\", {}]", 
        "eps": "0.001", 
        "fix_gamma": "True", 
        "momentum": "0.001", 
        "use_global_stats": "True"
      }, 
      "inputs": []
    }, 
    {
      "op": "null", 
      "name": "flow_imagenet/Mixed_3c/Branch_3/Conv3d_0b_1x1/batch_norm/_moving_var", 
      "attr": {
        "__init__": "[\"one\", {}]", 
        "eps": "0.001", 
        "fix_gamma": "True", 
        "momentum": "0.001", 
        "use_global_stats": "True"
      }, 
      "inputs": []
    }, 
    {
      "op": "BatchNorm", 
      "name": "flow_imagenet/Mixed_3c/Branch_3/Conv3d_0b_1x1/batch_norm/", 
      "attr": {
        "eps": "0.001", 
        "fix_gamma": "True", 
        "momentum": "0.001", 
        "use_global_stats": "True"
      }, 
      "inputs": [[122, 0, 0], [123, 0, 0], [124, 0, 0], [125, 0, 1], [126, 0, 1]]
    }, 
    {
      "op": "Activation", 
      "name": "flow_imagenet/Mixed_3c/Branch_3/Conv3d_0b_1x1/relu/", 
      "attr": {"act_type": "relu"}, 
      "inputs": [[127, 0, 0]]
    }, 
    {
      "op": "Concat", 
      "name": "flow_imagenet/Mixed_3c/Concat", 
      "attr": {
        "dim": "1", 
        "num_args": "4"
      }, 
      "inputs": [[87, 0, 0], [103, 0, 0], [119, 0, 0], [128, 0, 0]]
    }, 
    {
      "op": "Pad", 
      "name": "flow_imagenet/MaxPool3d_4a_3x3//pad", 
      "attr": {
        "constant_value": "0", 
        "mode": "constant", 
        "pad_width": "(0, 0, 0, 0, 0, 1, 0, 1, 0, 1)"
      }, 
      "inputs": [[129, 0, 0]]
    }, 
    {
      "op": "Pooling", 
      "name": "flow_imagenet/MaxPool3d_4a_3x3/", 
      "attr": {
        "kernel": "(3, 3, 3)", 
        "pad": "(0, 0, 0)", 
        "pool_type": "max", 
        "pooling_convention": "valid", 
        "stride": "(2, 2, 2)"
      }, 
      "inputs": [[130, 0, 0]]
    }, 
    {
      "op": "null", 
      "name": "flow_imagenet/Mixed_4b/Branch_0/Conv3d_0a_1x1/conv_3d/_weight", 
      "attr": {
        "dilate": "(1, 1, 1)", 
        "kernel": "(1, 1, 1)", 
        "no_bias": "True", 
        "num_filter": "192", 
        "pad": "(0, 0, 0)", 
        "stride": "(1, 1, 1)"
      }, 
      "inputs": []
    }, 
    {
      "op": "Convolution", 
      "name": "flow_imagenet/Mixed_4b/Branch_0/Conv3d_0a_1x1/conv_3d/", 
      "attr": {
        "dilate": "(1, 1, 1)", 
        "kernel": "(1, 1, 1)", 
        "no_bias": "True", 
        "num_filter": "192", 
        "pad": "(0, 0, 0)", 
        "stride": "(1, 1, 1)"
      }, 
      "inputs": [[131, 0, 0], [132, 0, 0]]
    }, 
    {
      "op": "null", 
      "name": "flow_imagenet/Mixed_4b/Branch_0/Conv3d_0a_1x1/batch_norm/_gamma", 
      "attr": {
        "eps": "0.001", 
        "fix_gamma": "True", 
        "momentum": "0.001", 
        "use_global_stats": "True"
      }, 
      "inputs": []
    }, 
    {
      "op": "null", 
      "name": "flow_imagenet/Mixed_4b/Branch_0/Conv3d_0a_1x1/batch_norm/_beta", 
      "attr": {
        "eps": "0.001", 
        "fix_gamma": "True", 
        "momentum": "0.001", 
        "use_global_stats": "True"
      }, 
      "inputs": []
    }, 
    {
      "op": "null", 
      "name": "flow_imagenet/Mixed_4b/Branch_0/Conv3d_0a_1x1/batch_norm/_moving_mean", 
      "attr": {
        "__init__": "[\"zero\", {}]", 
        "eps": "0.001", 
        "fix_gamma": "True", 
        "momentum": "0.001", 
        "use_global_stats": "True"
      }, 
      "inputs": []
    }, 
    {
      "op": "null", 
      "name": "flow_imagenet/Mixed_4b/Branch_0/Conv3d_0a_1x1/batch_norm/_moving_var", 
      "attr": {
        "__init__": "[\"one\", {}]", 
        "eps": "0.001", 
        "fix_gamma": "True", 
        "momentum": "0.001", 
        "use_global_stats": "True"
      }, 
      "inputs": []
    }, 
    {
      "op": "BatchNorm", 
      "name": "flow_imagenet/Mixed_4b/Branch_0/Conv3d_0a_1x1/batch_norm/", 
      "attr": {
        "eps": "0.001", 
        "fix_gamma": "True", 
        "momentum": "0.001", 
        "use_global_stats": "True"
      }, 
      "inputs": [[133, 0, 0], [134, 0, 0], [135, 0, 0], [136, 0, 1], [137, 0, 1]]
    }, 
    {
      "op": "Activation", 
      "name": "flow_imagenet/Mixed_4b/Branch_0/Conv3d_0a_1x1/relu/", 
      "attr": {"act_type": "relu"}, 
      "inputs": [[138, 0, 0]]
    }, 
    {
      "op": "null", 
      "name": "flow_imagenet/Mixed_4b/Branch_1/Conv3d_0a_1x1/conv_3d/_weight", 
      "attr": {
        "dilate": "(1, 1, 1)", 
        "kernel": "(1, 1, 1)", 
        "no_bias": "True", 
        "num_filter": "96", 
        "pad": "(0, 0, 0)", 
        "stride": "(1, 1, 1)"
      }, 
      "inputs": []
    }, 
    {
      "op": "Convolution", 
      "name": "flow_imagenet/Mixed_4b/Branch_1/Conv3d_0a_1x1/conv_3d/", 
      "attr": {
        "dilate": "(1, 1, 1)", 
        "kernel": "(1, 1, 1)", 
        "no_bias": "True", 
        "num_filter": "96", 
        "pad": "(0, 0, 0)", 
        "stride": "(1, 1, 1)"
      }, 
      "inputs": [[131, 0, 0], [140, 0, 0]]
    }, 
    {
      "op": "null", 
      "name": "flow_imagenet/Mixed_4b/Branch_1/Conv3d_0a_1x1/batch_norm/_gamma", 
      "attr": {
        "eps": "0.001", 
        "fix_gamma": "True", 
        "momentum": "0.001", 
        "use_global_stats": "True"
      }, 
      "inputs": []
    }, 
    {
      "op": "null", 
      "name": "flow_imagenet/Mixed_4b/Branch_1/Conv3d_0a_1x1/batch_norm/_beta", 
      "attr": {
        "eps": "0.001", 
        "fix_gamma": "True", 
        "momentum": "0.001", 
        "use_global_stats": "True"
      }, 
      "inputs": []
    }, 
    {
      "op": "null", 
      "name": "flow_imagenet/Mixed_4b/Branch_1/Conv3d_0a_1x1/batch_norm/_moving_mean", 
      "attr": {
        "__init__": "[\"zero\", {}]", 
        "eps": "0.001", 
        "fix_gamma": "True", 
        "momentum": "0.001", 
        "use_global_stats": "True"
      }, 
      "inputs": []
    }, 
    {
      "op": "null", 
      "name": "flow_imagenet/Mixed_4b/Branch_1/Conv3d_0a_1x1/batch_norm/_moving_var", 
      "attr": {
        "__init__": "[\"one\", {}]", 
        "eps": "0.001", 
        "fix_gamma": "True", 
        "momentum": "0.001", 
        "use_global_stats": "True"
      }, 
      "inputs": []
    }, 
    {
      "op": "BatchNorm", 
      "name": "flow_imagenet/Mixed_4b/Branch_1/Conv3d_0a_1x1/batch_norm/", 
      "attr": {
        "eps": "0.001", 
        "fix_gamma": "True", 
        "momentum": "0.001", 
        "use_global_stats": "True"
      }, 
      "inputs": [[141, 0, 0], [142, 0, 0], [143, 0, 0], [144, 0, 1], [145, 0, 1]]
    }, 
    {
      "op": "Activation", 
      "name": "flow_imagenet/Mixed_4b/Branch_1/Conv3d_0a_1x1/relu/", 
      "attr": {"act_type": "relu"}, 
      "inputs": [[146, 0, 0]]
    }, 
    {
      "op": "null", 
      "name": "flow_imagenet/Mixed_4b/Branch_1/Conv3d_0b_3x3/conv_3d/_weight", 
      "attr": {
        "dilate": "(1, 1, 1)", 
        "kernel": "(3, 3, 3)", 
        "no_bias": "True", 
        "num_filter": "208", 
        "pad": "(1, 1, 1)", 
        "stride": "(1, 1, 1)"
      }, 
      "inputs": []
    }, 
    {
      "op": "Convolution", 
      "name": "flow_imagenet/Mixed_4b/Branch_1/Conv3d_0b_3x3/conv_3d/", 
      "attr": {
        "dilate": "(1, 1, 1)", 
        "kernel": "(3, 3, 3)", 
        "no_bias": "True", 
        "num_filter": "208", 
        "pad": "(1, 1, 1)", 
        "stride": "(1, 1, 1)"
      }, 
      "inputs": [[147, 0, 0], [148, 0, 0]]
    }, 
    {
      "op": "null", 
      "name": "flow_imagenet/Mixed_4b/Branch_1/Conv3d_0b_3x3/batch_norm/_gamma", 
      "attr": {
        "eps": "0.001", 
        "fix_gamma": "True", 
        "momentum": "0.001", 
        "use_global_stats": "True"
      }, 
      "inputs": []
    }, 
    {
      "op": "null", 
      "name": "flow_imagenet/Mixed_4b/Branch_1/Conv3d_0b_3x3/batch_norm/_beta", 
      "attr": {
        "eps": "0.001", 
        "fix_gamma": "True", 
        "momentum": "0.001", 
        "use_global_stats": "True"
      }, 
      "inputs": []
    }, 
    {
      "op": "null", 
      "name": "flow_imagenet/Mixed_4b/Branch_1/Conv3d_0b_3x3/batch_norm/_moving_mean", 
      "attr": {
        "__init__": "[\"zero\", {}]", 
        "eps": "0.001", 
        "fix_gamma": "True", 
        "momentum": "0.001", 
        "use_global_stats": "True"
      }, 
      "inputs": []
    }, 
    {
      "op": "null", 
      "name": "flow_imagenet/Mixed_4b/Branch_1/Conv3d_0b_3x3/batch_norm/_moving_var", 
      "attr": {
        "__init__": "[\"one\", {}]", 
        "eps": "0.001", 
        "fix_gamma": "True", 
        "momentum": "0.001", 
        "use_global_stats": "True"
      }, 
      "inputs": []
    }, 
    {
      "op": "BatchNorm", 
      "name": "flow_imagenet/Mixed_4b/Branch_1/Conv3d_0b_3x3/batch_norm/", 
      "attr": {
        "eps": "0.001", 
        "fix_gamma": "True", 
        "momentum": "0.001", 
        "use_global_stats": "True"
      }, 
      "inputs": [[149, 0, 0], [150, 0, 0], [151, 0, 0], [152, 0, 1], [153, 0, 1]]
    }, 
    {
      "op": "Activation", 
      "name": "flow_imagenet/Mixed_4b/Branch_1/Conv3d_0b_3x3/relu/", 
      "attr": {"act_type": "relu"}, 
      "inputs": [[154, 0, 0]]
    }, 
    {
      "op": "null", 
      "name": "flow_imagenet/Mixed_4b/Branch_2/Conv3d_0a_1x1/conv_3d/_weight", 
      "attr": {
        "dilate": "(1, 1, 1)", 
        "kernel": "(1, 1, 1)", 
        "no_bias": "True", 
        "num_filter": "16", 
        "pad": "(0, 0, 0)", 
        "stride": "(1, 1, 1)"
      }, 
      "inputs": []
    }, 
    {
      "op": "Convolution", 
      "name": "flow_imagenet/Mixed_4b/Branch_2/Conv3d_0a_1x1/conv_3d/", 
      "attr": {
        "dilate": "(1, 1, 1)", 
        "kernel": "(1, 1, 1)", 
        "no_bias": "True", 
        "num_filter": "16", 
        "pad": "(0, 0, 0)", 
        "stride": "(1, 1, 1)"
      }, 
      "inputs": [[131, 0, 0], [156, 0, 0]]
    }, 
    {
      "op": "null", 
      "name": "flow_imagenet/Mixed_4b/Branch_2/Conv3d_0a_1x1/batch_norm/_gamma", 
      "attr": {
        "eps": "0.001", 
        "fix_gamma": "True", 
        "momentum": "0.001", 
        "use_global_stats": "True"
      }, 
      "inputs": []
    }, 
    {
      "op": "null", 
      "name": "flow_imagenet/Mixed_4b/Branch_2/Conv3d_0a_1x1/batch_norm/_beta", 
      "attr": {
        "eps": "0.001", 
        "fix_gamma": "True", 
        "momentum": "0.001", 
        "use_global_stats": "True"
      }, 
      "inputs": []
    }, 
    {
      "op": "null", 
      "name": "flow_imagenet/Mixed_4b/Branch_2/Conv3d_0a_1x1/batch_norm/_moving_mean", 
      "attr": {
        "__init__": "[\"zero\", {}]", 
        "eps": "0.001", 
        "fix_gamma": "True", 
        "momentum": "0.001", 
        "use_global_stats": "True"
      }, 
      "inputs": []
    }, 
    {
      "op": "null", 
      "name": "flow_imagenet/Mixed_4b/Branch_2/Conv3d_0a_1x1/batch_norm/_moving_var", 
      "attr": {
        "__init__": "[\"one\", {}]", 
        "eps": "0.001", 
        "fix_gamma": "True", 
        "momentum": "0.001", 
        "use_global_stats": "True"
      }, 
      "inputs": []
    }, 
    {
      "op": "BatchNorm", 
      "name": "flow_imagenet/Mixed_4b/Branch_2/Conv3d_0a_1x1/batch_norm/", 
      "attr": {
        "eps": "0.001", 
        "fix_gamma": "True", 
        "momentum": "0.001", 
        "use_global_stats": "True"
      }, 
      "inputs": [[157, 0, 0], [158, 0, 0], [159, 0, 0], [160, 0, 1], [161, 0, 1]]
    }, 
    {
      "op": "Activation", 
      "name": "flow_imagenet/Mixed_4b/Branch_2/Conv3d_0a_1x1/relu/", 
      "attr": {"act_type": "relu"}, 
      "inputs": [[162, 0, 0]]
    }, 
    {
      "op": "null", 
      "name": "flow_imagenet/Mixed_4b/Branch_2/Conv3d_0b_3x3/conv_3d/_weight", 
      "attr": {
        "dilate": "(1, 1, 1)", 
        "kernel": "(3, 3, 3)", 
        "no_bias": "True", 
        "num_filter": "48", 
        "pad": "(1, 1, 1)", 
        "stride": "(1, 1, 1)"
      }, 
      "inputs": []
    }, 
    {
      "op": "Convolution", 
      "name": "flow_imagenet/Mixed_4b/Branch_2/Conv3d_0b_3x3/conv_3d/", 
      "attr": {
        "dilate": "(1, 1, 1)", 
        "kernel": "(3, 3, 3)", 
        "no_bias": "True", 
        "num_filter": "48", 
        "pad": "(1, 1, 1)", 
        "stride": "(1, 1, 1)"
      }, 
      "inputs": [[163, 0, 0], [164, 0, 0]]
    }, 
    {
      "op": "null", 
      "name": "flow_imagenet/Mixed_4b/Branch_2/Conv3d_0b_3x3/batch_norm/_gamma", 
      "attr": {
        "eps": "0.001", 
        "fix_gamma": "True", 
        "momentum": "0.001", 
        "use_global_stats": "True"
      }, 
      "inputs": []
    }, 
    {
      "op": "null", 
      "name": "flow_imagenet/Mixed_4b/Branch_2/Conv3d_0b_3x3/batch_norm/_beta", 
      "attr": {
        "eps": "0.001", 
        "fix_gamma": "True", 
        "momentum": "0.001", 
        "use_global_stats": "True"
      }, 
      "inputs": []
    }, 
    {
      "op": "null", 
      "name": "flow_imagenet/Mixed_4b/Branch_2/Conv3d_0b_3x3/batch_norm/_moving_mean", 
      "attr": {
        "__init__": "[\"zero\", {}]", 
        "eps": "0.001", 
        "fix_gamma": "True", 
        "momentum": "0.001", 
        "use_global_stats": "True"
      }, 
      "inputs": []
    }, 
    {
      "op": "null", 
      "name": "flow_imagenet/Mixed_4b/Branch_2/Conv3d_0b_3x3/batch_norm/_moving_var", 
      "attr": {
        "__init__": "[\"one\", {}]", 
        "eps": "0.001", 
        "fix_gamma": "True", 
        "momentum": "0.001", 
        "use_global_stats": "True"
      }, 
      "inputs": []
    }, 
    {
      "op": "BatchNorm", 
      "name": "flow_imagenet/Mixed_4b/Branch_2/Conv3d_0b_3x3/batch_norm/", 
      "attr": {
        "eps": "0.001", 
        "fix_gamma": "True", 
        "momentum": "0.001", 
        "use_global_stats": "True"
      }, 
      "inputs": [[165, 0, 0], [166, 0, 0], [167, 0, 0], [168, 0, 1], [169, 0, 1]]
    }, 
    {
      "op": "Activation", 
      "name": "flow_imagenet/Mixed_4b/Branch_2/Conv3d_0b_3x3/relu/", 
      "attr": {"act_type": "relu"}, 
      "inputs": [[170, 0, 0]]
    }, 
    {
      "op": "Pooling", 
      "name": "flow_imagenet/Mixed_4b/Branch_2/MaxPool3d_0a_3x3", 
      "attr": {
        "kernel": "(3, 3, 3)", 
        "pad": "(1, 1, 1)", 
        "pool_type": "max", 
        "pooling_convention": "valid", 
        "stride": "(1, 1, 1)"
      }, 
      "inputs": [[131, 0, 0]]
    }, 
    {
      "op": "null", 
      "name": "flow_imagenet/Mixed_4b/Branch_3/Conv3d_0b_1x1/conv_3d/_weight", 
      "attr": {
        "dilate": "(1, 1, 1)", 
        "kernel": "(1, 1, 1)", 
        "no_bias": "True", 
        "num_filter": "64", 
        "pad": "(0, 0, 0)", 
        "stride": "(1, 1, 1)"
      }, 
      "inputs": []
    }, 
    {
      "op": "Convolution", 
      "name": "flow_imagenet/Mixed_4b/Branch_3/Conv3d_0b_1x1/conv_3d/", 
      "attr": {
        "dilate": "(1, 1, 1)", 
        "kernel": "(1, 1, 1)", 
        "no_bias": "True", 
        "num_filter": "64", 
        "pad": "(0, 0, 0)", 
        "stride": "(1, 1, 1)"
      }, 
      "inputs": [[172, 0, 0], [173, 0, 0]]
    }, 
    {
      "op": "null", 
      "name": "flow_imagenet/Mixed_4b/Branch_3/Conv3d_0b_1x1/batch_norm/_gamma", 
      "attr": {
        "eps": "0.001", 
        "fix_gamma": "True", 
        "momentum": "0.001", 
        "use_global_stats": "True"
      }, 
      "inputs": []
    }, 
    {
      "op": "null", 
      "name": "flow_imagenet/Mixed_4b/Branch_3/Conv3d_0b_1x1/batch_norm/_beta", 
      "attr": {
        "eps": "0.001", 
        "fix_gamma": "True", 
        "momentum": "0.001", 
        "use_global_stats": "True"
      }, 
      "inputs": []
    }, 
    {
      "op": "null", 
      "name": "flow_imagenet/Mixed_4b/Branch_3/Conv3d_0b_1x1/batch_norm/_moving_mean", 
      "attr": {
        "__init__": "[\"zero\", {}]", 
        "eps": "0.001", 
        "fix_gamma": "True", 
        "momentum": "0.001", 
        "use_global_stats": "True"
      }, 
      "inputs": []
    }, 
    {
      "op": "null", 
      "name": "flow_imagenet/Mixed_4b/Branch_3/Conv3d_0b_1x1/batch_norm/_moving_var", 
      "attr": {
        "__init__": "[\"one\", {}]", 
        "eps": "0.001", 
        "fix_gamma": "True", 
        "momentum": "0.001", 
        "use_global_stats": "True"
      }, 
      "inputs": []
    }, 
    {
      "op": "BatchNorm", 
      "name": "flow_imagenet/Mixed_4b/Branch_3/Conv3d_0b_1x1/batch_norm/", 
      "attr": {
        "eps": "0.001", 
        "fix_gamma": "True", 
        "momentum": "0.001", 
        "use_global_stats": "True"
      }, 
      "inputs": [[174, 0, 0], [175, 0, 0], [176, 0, 0], [177, 0, 1], [178, 0, 1]]
    }, 
    {
      "op": "Activation", 
      "name": "flow_imagenet/Mixed_4b/Branch_3/Conv3d_0b_1x1/relu/", 
      "attr": {"act_type": "relu"}, 
      "inputs": [[179, 0, 0]]
    }, 
    {
      "op": "Concat", 
      "name": "flow_imagenet/Mixed_4b/Concat", 
      "attr": {
        "dim": "1", 
        "num_args": "4"
      }, 
      "inputs": [[139, 0, 0], [155, 0, 0], [171, 0, 0], [180, 0, 0]]
    }, 
    {
      "op": "null", 
      "name": "flow_imagenet/Mixed_4c/Branch_0/Conv3d_0a_1x1/conv_3d/_weight", 
      "attr": {
        "dilate": "(1, 1, 1)", 
        "kernel": "(1, 1, 1)", 
        "no_bias": "True", 
        "num_filter": "160", 
        "pad": "(0, 0, 0)", 
        "stride": "(1, 1, 1)"
      }, 
      "inputs": []
    }, 
    {
      "op": "Convolution", 
      "name": "flow_imagenet/Mixed_4c/Branch_0/Conv3d_0a_1x1/conv_3d/", 
      "attr": {
        "dilate": "(1, 1, 1)", 
        "kernel": "(1, 1, 1)", 
        "no_bias": "True", 
        "num_filter": "160", 
        "pad": "(0, 0, 0)", 
        "stride": "(1, 1, 1)"
      }, 
      "inputs": [[181, 0, 0], [182, 0, 0]]
    }, 
    {
      "op": "null", 
      "name": "flow_imagenet/Mixed_4c/Branch_0/Conv3d_0a_1x1/batch_norm/_gamma", 
      "attr": {
        "eps": "0.001", 
        "fix_gamma": "True", 
        "momentum": "0.001", 
        "use_global_stats": "True"
      }, 
      "inputs": []
    }, 
    {
      "op": "null", 
      "name": "flow_imagenet/Mixed_4c/Branch_0/Conv3d_0a_1x1/batch_norm/_beta", 
      "attr": {
        "eps": "0.001", 
        "fix_gamma": "True", 
        "momentum": "0.001", 
        "use_global_stats": "True"
      }, 
      "inputs": []
    }, 
    {
      "op": "null", 
      "name": "flow_imagenet/Mixed_4c/Branch_0/Conv3d_0a_1x1/batch_norm/_moving_mean", 
      "attr": {
        "__init__": "[\"zero\", {}]", 
        "eps": "0.001", 
        "fix_gamma": "True", 
        "momentum": "0.001", 
        "use_global_stats": "True"
      }, 
      "inputs": []
    }, 
    {
      "op": "null", 
      "name": "flow_imagenet/Mixed_4c/Branch_0/Conv3d_0a_1x1/batch_norm/_moving_var", 
      "attr": {
        "__init__": "[\"one\", {}]", 
        "eps": "0.001", 
        "fix_gamma": "True", 
        "momentum": "0.001", 
        "use_global_stats": "True"
      }, 
      "inputs": []
    }, 
    {
      "op": "BatchNorm", 
      "name": "flow_imagenet/Mixed_4c/Branch_0/Conv3d_0a_1x1/batch_norm/", 
      "attr": {
        "eps": "0.001", 
        "fix_gamma": "True", 
        "momentum": "0.001", 
        "use_global_stats": "True"
      }, 
      "inputs": [[183, 0, 0], [184, 0, 0], [185, 0, 0], [186, 0, 1], [187, 0, 1]]
    }, 
    {
      "op": "Activation", 
      "name": "flow_imagenet/Mixed_4c/Branch_0/Conv3d_0a_1x1/relu/", 
      "attr": {"act_type": "relu"}, 
      "inputs": [[188, 0, 0]]
    }, 
    {
      "op": "null", 
      "name": "flow_imagenet/Mixed_4c/Branch_1/Conv3d_0a_1x1/conv_3d/_weight", 
      "attr": {
        "dilate": "(1, 1, 1)", 
        "kernel": "(1, 1, 1)", 
        "no_bias": "True", 
        "num_filter": "112", 
        "pad": "(0, 0, 0)", 
        "stride": "(1, 1, 1)"
      }, 
      "inputs": []
    }, 
    {
      "op": "Convolution", 
      "name": "flow_imagenet/Mixed_4c/Branch_1/Conv3d_0a_1x1/conv_3d/", 
      "attr": {
        "dilate": "(1, 1, 1)", 
        "kernel": "(1, 1, 1)", 
        "no_bias": "True", 
        "num_filter": "112", 
        "pad": "(0, 0, 0)", 
        "stride": "(1, 1, 1)"
      }, 
      "inputs": [[181, 0, 0], [190, 0, 0]]
    }, 
    {
      "op": "null", 
      "name": "flow_imagenet/Mixed_4c/Branch_1/Conv3d_0a_1x1/batch_norm/_gamma", 
      "attr": {
        "eps": "0.001", 
        "fix_gamma": "True", 
        "momentum": "0.001", 
        "use_global_stats": "True"
      }, 
      "inputs": []
    }, 
    {
      "op": "null", 
      "name": "flow_imagenet/Mixed_4c/Branch_1/Conv3d_0a_1x1/batch_norm/_beta", 
      "attr": {
        "eps": "0.001", 
        "fix_gamma": "True", 
        "momentum": "0.001", 
        "use_global_stats": "True"
      }, 
      "inputs": []
    }, 
    {
      "op": "null", 
      "name": "flow_imagenet/Mixed_4c/Branch_1/Conv3d_0a_1x1/batch_norm/_moving_mean", 
      "attr": {
        "__init__": "[\"zero\", {}]", 
        "eps": "0.001", 
        "fix_gamma": "True", 
        "momentum": "0.001", 
        "use_global_stats": "True"
      }, 
      "inputs": []
    }, 
    {
      "op": "null", 
      "name": "flow_imagenet/Mixed_4c/Branch_1/Conv3d_0a_1x1/batch_norm/_moving_var", 
      "attr": {
        "__init__": "[\"one\", {}]", 
        "eps": "0.001", 
        "fix_gamma": "True", 
        "momentum": "0.001", 
        "use_global_stats": "True"
      }, 
      "inputs": []
    }, 
    {
      "op": "BatchNorm", 
      "name": "flow_imagenet/Mixed_4c/Branch_1/Conv3d_0a_1x1/batch_norm/", 
      "attr": {
        "eps": "0.001", 
        "fix_gamma": "True", 
        "momentum": "0.001", 
        "use_global_stats": "True"
      }, 
      "inputs": [[191, 0, 0], [192, 0, 0], [193, 0, 0], [194, 0, 1], [195, 0, 1]]
    }, 
    {
      "op": "Activation", 
      "name": "flow_imagenet/Mixed_4c/Branch_1/Conv3d_0a_1x1/relu/", 
      "attr": {"act_type": "relu"}, 
      "inputs": [[196, 0, 0]]
    }, 
    {
      "op": "null", 
      "name": "flow_imagenet/Mixed_4c/Branch_1/Conv3d_0b_3x3/conv_3d/_weight", 
      "attr": {
        "dilate": "(1, 1, 1)", 
        "kernel": "(3, 3, 3)", 
        "no_bias": "True", 
        "num_filter": "224", 
        "pad": "(1, 1, 1)", 
        "stride": "(1, 1, 1)"
      }, 
      "inputs": []
    }, 
    {
      "op": "Convolution", 
      "name": "flow_imagenet/Mixed_4c/Branch_1/Conv3d_0b_3x3/conv_3d/", 
      "attr": {
        "dilate": "(1, 1, 1)", 
        "kernel": "(3, 3, 3)", 
        "no_bias": "True", 
        "num_filter": "224", 
        "pad": "(1, 1, 1)", 
        "stride": "(1, 1, 1)"
      }, 
      "inputs": [[197, 0, 0], [198, 0, 0]]
    }, 
    {
      "op": "null", 
      "name": "flow_imagenet/Mixed_4c/Branch_1/Conv3d_0b_3x3/batch_norm/_gamma", 
      "attr": {
        "eps": "0.001", 
        "fix_gamma": "True", 
        "momentum": "0.001", 
        "use_global_stats": "True"
      }, 
      "inputs": []
    }, 
    {
      "op": "null", 
      "name": "flow_imagenet/Mixed_4c/Branch_1/Conv3d_0b_3x3/batch_norm/_beta", 
      "attr": {
        "eps": "0.001", 
        "fix_gamma": "True", 
        "momentum": "0.001", 
        "use_global_stats": "True"
      }, 
      "inputs": []
    }, 
    {
      "op": "null", 
      "name": "flow_imagenet/Mixed_4c/Branch_1/Conv3d_0b_3x3/batch_norm/_moving_mean", 
      "attr": {
        "__init__": "[\"zero\", {}]", 
        "eps": "0.001", 
        "fix_gamma": "True", 
        "momentum": "0.001", 
        "use_global_stats": "True"
      }, 
      "inputs": []
    }, 
    {
      "op": "null", 
      "name": "flow_imagenet/Mixed_4c/Branch_1/Conv3d_0b_3x3/batch_norm/_moving_var", 
      "attr": {
        "__init__": "[\"one\", {}]", 
        "eps": "0.001", 
        "fix_gamma": "True", 
        "momentum": "0.001", 
        "use_global_stats": "True"
      }, 
      "inputs": []
    }, 
    {
      "op": "BatchNorm", 
      "name": "flow_imagenet/Mixed_4c/Branch_1/Conv3d_0b_3x3/batch_norm/", 
      "attr": {
        "eps": "0.001", 
        "fix_gamma": "True", 
        "momentum": "0.001", 
        "use_global_stats": "True"
      }, 
      "inputs": [[199, 0, 0], [200, 0, 0], [201, 0, 0], [202, 0, 1], [203, 0, 1]]
    }, 
    {
      "op": "Activation", 
      "name": "flow_imagenet/Mixed_4c/Branch_1/Conv3d_0b_3x3/relu/", 
      "attr": {"act_type": "relu"}, 
      "inputs": [[204, 0, 0]]
    }, 
    {
      "op": "null", 
      "name": "flow_imagenet/Mixed_4c/Branch_2/Conv3d_0a_1x1/conv_3d/_weight", 
      "attr": {
        "dilate": "(1, 1, 1)", 
        "kernel": "(1, 1, 1)", 
        "no_bias": "True", 
        "num_filter": "24", 
        "pad": "(0, 0, 0)", 
        "stride": "(1, 1, 1)"
      }, 
      "inputs": []
    }, 
    {
      "op": "Convolution", 
      "name": "flow_imagenet/Mixed_4c/Branch_2/Conv3d_0a_1x1/conv_3d/", 
      "attr": {
        "dilate": "(1, 1, 1)", 
        "kernel": "(1, 1, 1)", 
        "no_bias": "True", 
        "num_filter": "24", 
        "pad": "(0, 0, 0)", 
        "stride": "(1, 1, 1)"
      }, 
      "inputs": [[181, 0, 0], [206, 0, 0]]
    }, 
    {
      "op": "null", 
      "name": "flow_imagenet/Mixed_4c/Branch_2/Conv3d_0a_1x1/batch_norm/_gamma", 
      "attr": {
        "eps": "0.001", 
        "fix_gamma": "True", 
        "momentum": "0.001", 
        "use_global_stats": "True"
      }, 
      "inputs": []
    }, 
    {
      "op": "null", 
      "name": "flow_imagenet/Mixed_4c/Branch_2/Conv3d_0a_1x1/batch_norm/_beta", 
      "attr": {
        "eps": "0.001", 
        "fix_gamma": "True", 
        "momentum": "0.001", 
        "use_global_stats": "True"
      }, 
      "inputs": []
    }, 
    {
      "op": "null", 
      "name": "flow_imagenet/Mixed_4c/Branch_2/Conv3d_0a_1x1/batch_norm/_moving_mean", 
      "attr": {
        "__init__": "[\"zero\", {}]", 
        "eps": "0.001", 
        "fix_gamma": "True", 
        "momentum": "0.001", 
        "use_global_stats": "True"
      }, 
      "inputs": []
    }, 
    {
      "op": "null", 
      "name": "flow_imagenet/Mixed_4c/Branch_2/Conv3d_0a_1x1/batch_norm/_moving_var", 
      "attr": {
        "__init__": "[\"one\", {}]", 
        "eps": "0.001", 
        "fix_gamma": "True", 
        "momentum": "0.001", 
        "use_global_stats": "True"
      }, 
      "inputs": []
    }, 
    {
      "op": "BatchNorm", 
      "name": "flow_imagenet/Mixed_4c/Branch_2/Conv3d_0a_1x1/batch_norm/", 
      "attr": {
        "eps": "0.001", 
        "fix_gamma": "True", 
        "momentum": "0.001", 
        "use_global_stats": "True"
      }, 
      "inputs": [[207, 0, 0], [208, 0, 0], [209, 0, 0], [210, 0, 1], [211, 0, 1]]
    }, 
    {
      "op": "Activation", 
      "name": "flow_imagenet/Mixed_4c/Branch_2/Conv3d_0a_1x1/relu/", 
      "attr": {"act_type": "relu"}, 
      "inputs": [[212, 0, 0]]
    }, 
    {
      "op": "null", 
      "name": "flow_imagenet/Mixed_4c/Branch_2/Conv3d_0b_3x3/conv_3d/_weight", 
      "attr": {
        "dilate": "(1, 1, 1)", 
        "kernel": "(3, 3, 3)", 
        "no_bias": "True", 
        "num_filter": "64", 
        "pad": "(1, 1, 1)", 
        "stride": "(1, 1, 1)"
      }, 
      "inputs": []
    }, 
    {
      "op": "Convolution", 
      "name": "flow_imagenet/Mixed_4c/Branch_2/Conv3d_0b_3x3/conv_3d/", 
      "attr": {
        "dilate": "(1, 1, 1)", 
        "kernel": "(3, 3, 3)", 
        "no_bias": "True", 
        "num_filter": "64", 
        "pad": "(1, 1, 1)", 
        "stride": "(1, 1, 1)"
      }, 
      "inputs": [[213, 0, 0], [214, 0, 0]]
    }, 
    {
      "op": "null", 
      "name": "flow_imagenet/Mixed_4c/Branch_2/Conv3d_0b_3x3/batch_norm/_gamma", 
      "attr": {
        "eps": "0.001", 
        "fix_gamma": "True", 
        "momentum": "0.001", 
        "use_global_stats": "True"
      }, 
      "inputs": []
    }, 
    {
      "op": "null", 
      "name": "flow_imagenet/Mixed_4c/Branch_2/Conv3d_0b_3x3/batch_norm/_beta", 
      "attr": {
        "eps": "0.001", 
        "fix_gamma": "True", 
        "momentum": "0.001", 
        "use_global_stats": "True"
      }, 
      "inputs": []
    }, 
    {
      "op": "null", 
      "name": "flow_imagenet/Mixed_4c/Branch_2/Conv3d_0b_3x3/batch_norm/_moving_mean", 
      "attr": {
        "__init__": "[\"zero\", {}]", 
        "eps": "0.001", 
        "fix_gamma": "True", 
        "momentum": "0.001", 
        "use_global_stats": "True"
      }, 
      "inputs": []
    }, 
    {
      "op": "null", 
      "name": "flow_imagenet/Mixed_4c/Branch_2/Conv3d_0b_3x3/batch_norm/_moving_var", 
      "attr": {
        "__init__": "[\"one\", {}]", 
        "eps": "0.001", 
        "fix_gamma": "True", 
        "momentum": "0.001", 
        "use_global_stats": "True"
      }, 
      "inputs": []
    }, 
    {
      "op": "BatchNorm", 
      "name": "flow_imagenet/Mixed_4c/Branch_2/Conv3d_0b_3x3/batch_norm/", 
      "attr": {
        "eps": "0.001", 
        "fix_gamma": "True", 
        "momentum": "0.001", 
        "use_global_stats": "True"
      }, 
      "inputs": [[215, 0, 0], [216, 0, 0], [217, 0, 0], [218, 0, 1], [219, 0, 1]]
    }, 
    {
      "op": "Activation", 
      "name": "flow_imagenet/Mixed_4c/Branch_2/Conv3d_0b_3x3/relu/", 
      "attr": {"act_type": "relu"}, 
      "inputs": [[220, 0, 0]]
    }, 
    {
      "op": "Pooling", 
      "name": "flow_imagenet/Mixed_4c/Branch_2/MaxPool3d_0a_3x3", 
      "attr": {
        "kernel": "(3, 3, 3)", 
        "pad": "(1, 1, 1)", 
        "pool_type": "max", 
        "pooling_convention": "valid", 
        "stride": "(1, 1, 1)"
      }, 
      "inputs": [[181, 0, 0]]
    }, 
    {
      "op": "null", 
      "name": "flow_imagenet/Mixed_4c/Branch_3/Conv3d_0b_1x1/conv_3d/_weight", 
      "attr": {
        "dilate": "(1, 1, 1)", 
        "kernel": "(1, 1, 1)", 
        "no_bias": "True", 
        "num_filter": "64", 
        "pad": "(0, 0, 0)", 
        "stride": "(1, 1, 1)"
      }, 
      "inputs": []
    }, 
    {
      "op": "Convolution", 
      "name": "flow_imagenet/Mixed_4c/Branch_3/Conv3d_0b_1x1/conv_3d/", 
      "attr": {
        "dilate": "(1, 1, 1)", 
        "kernel": "(1, 1, 1)", 
        "no_bias": "True", 
        "num_filter": "64", 
        "pad": "(0, 0, 0)", 
        "stride": "(1, 1, 1)"
      }, 
      "inputs": [[222, 0, 0], [223, 0, 0]]
    }, 
    {
      "op": "null", 
      "name": "flow_imagenet/Mixed_4c/Branch_3/Conv3d_0b_1x1/batch_norm/_gamma", 
      "attr": {
        "eps": "0.001", 
        "fix_gamma": "True", 
        "momentum": "0.001", 
        "use_global_stats": "True"
      }, 
      "inputs": []
    }, 
    {
      "op": "null", 
      "name": "flow_imagenet/Mixed_4c/Branch_3/Conv3d_0b_1x1/batch_norm/_beta", 
      "attr": {
        "eps": "0.001", 
        "fix_gamma": "True", 
        "momentum": "0.001", 
        "use_global_stats": "True"
      }, 
      "inputs": []
    }, 
    {
      "op": "null", 
      "name": "flow_imagenet/Mixed_4c/Branch_3/Conv3d_0b_1x1/batch_norm/_moving_mean", 
      "attr": {
        "__init__": "[\"zero\", {}]", 
        "eps": "0.001", 
        "fix_gamma": "True", 
        "momentum": "0.001", 
        "use_global_stats": "True"
      }, 
      "inputs": []
    }, 
    {
      "op": "null", 
      "name": "flow_imagenet/Mixed_4c/Branch_3/Conv3d_0b_1x1/batch_norm/_moving_var", 
      "attr": {
        "__init__": "[\"one\", {}]", 
        "eps": "0.001", 
        "fix_gamma": "True", 
        "momentum": "0.001", 
        "use_global_stats": "True"
      }, 
      "inputs": []
    }, 
    {
      "op": "BatchNorm", 
      "name": "flow_imagenet/Mixed_4c/Branch_3/Conv3d_0b_1x1/batch_norm/", 
      "attr": {
        "eps": "0.001", 
        "fix_gamma": "True", 
        "momentum": "0.001", 
        "use_global_stats": "True"
      }, 
      "inputs": [[224, 0, 0], [225, 0, 0], [226, 0, 0], [227, 0, 1], [228, 0, 1]]
    }, 
    {
      "op": "Activation", 
      "name": "flow_imagenet/Mixed_4c/Branch_3/Conv3d_0b_1x1/relu/", 
      "attr": {"act_type": "relu"}, 
      "inputs": [[229, 0, 0]]
    }, 
    {
      "op": "Concat", 
      "name": "flow_imagenet/Mixed_4c/Concat", 
      "attr": {
        "dim": "1", 
        "num_args": "4"
      }, 
      "inputs": [[189, 0, 0], [205, 0, 0], [221, 0, 0], [230, 0, 0]]
    }, 
    {
      "op": "null", 
      "name": "flow_imagenet/Mixed_4d/Branch_0/Conv3d_0a_1x1/conv_3d/_weight", 
      "attr": {
        "dilate": "(1, 1, 1)", 
        "kernel": "(1, 1, 1)", 
        "no_bias": "True", 
        "num_filter": "128", 
        "pad": "(0, 0, 0)", 
        "stride": "(1, 1, 1)"
      }, 
      "inputs": []
    }, 
    {
      "op": "Convolution", 
      "name": "flow_imagenet/Mixed_4d/Branch_0/Conv3d_0a_1x1/conv_3d/", 
      "attr": {
        "dilate": "(1, 1, 1)", 
        "kernel": "(1, 1, 1)", 
        "no_bias": "True", 
        "num_filter": "128", 
        "pad": "(0, 0, 0)", 
        "stride": "(1, 1, 1)"
      }, 
      "inputs": [[231, 0, 0], [232, 0, 0]]
    }, 
    {
      "op": "null", 
      "name": "flow_imagenet/Mixed_4d/Branch_0/Conv3d_0a_1x1/batch_norm/_gamma", 
      "attr": {
        "eps": "0.001", 
        "fix_gamma": "True", 
        "momentum": "0.001", 
        "use_global_stats": "True"
      }, 
      "inputs": []
    }, 
    {
      "op": "null", 
      "name": "flow_imagenet/Mixed_4d/Branch_0/Conv3d_0a_1x1/batch_norm/_beta", 
      "attr": {
        "eps": "0.001", 
        "fix_gamma": "True", 
        "momentum": "0.001", 
        "use_global_stats": "True"
      }, 
      "inputs": []
    }, 
    {
      "op": "null", 
      "name": "flow_imagenet/Mixed_4d/Branch_0/Conv3d_0a_1x1/batch_norm/_moving_mean", 
      "attr": {
        "__init__": "[\"zero\", {}]", 
        "eps": "0.001", 
        "fix_gamma": "True", 
        "momentum": "0.001", 
        "use_global_stats": "True"
      }, 
      "inputs": []
    }, 
    {
      "op": "null", 
      "name": "flow_imagenet/Mixed_4d/Branch_0/Conv3d_0a_1x1/batch_norm/_moving_var", 
      "attr": {
        "__init__": "[\"one\", {}]", 
        "eps": "0.001", 
        "fix_gamma": "True", 
        "momentum": "0.001", 
        "use_global_stats": "True"
      }, 
      "inputs": []
    }, 
    {
      "op": "BatchNorm", 
      "name": "flow_imagenet/Mixed_4d/Branch_0/Conv3d_0a_1x1/batch_norm/", 
      "attr": {
        "eps": "0.001", 
        "fix_gamma": "True", 
        "momentum": "0.001", 
        "use_global_stats": "True"
      }, 
      "inputs": [[233, 0, 0], [234, 0, 0], [235, 0, 0], [236, 0, 1], [237, 0, 1]]
    }, 
    {
      "op": "Activation", 
      "name": "flow_imagenet/Mixed_4d/Branch_0/Conv3d_0a_1x1/relu/", 
      "attr": {"act_type": "relu"}, 
      "inputs": [[238, 0, 0]]
    }, 
    {
      "op": "null", 
      "name": "flow_imagenet/Mixed_4d/Branch_1/Conv3d_0a_1x1/conv_3d/_weight", 
      "attr": {
        "dilate": "(1, 1, 1)", 
        "kernel": "(1, 1, 1)", 
        "no_bias": "True", 
        "num_filter": "128", 
        "pad": "(0, 0, 0)", 
        "stride": "(1, 1, 1)"
      }, 
      "inputs": []
    }, 
    {
      "op": "Convolution", 
      "name": "flow_imagenet/Mixed_4d/Branch_1/Conv3d_0a_1x1/conv_3d/", 
      "attr": {
        "dilate": "(1, 1, 1)", 
        "kernel": "(1, 1, 1)", 
        "no_bias": "True", 
        "num_filter": "128", 
        "pad": "(0, 0, 0)", 
        "stride": "(1, 1, 1)"
      }, 
      "inputs": [[231, 0, 0], [240, 0, 0]]
    }, 
    {
      "op": "null", 
      "name": "flow_imagenet/Mixed_4d/Branch_1/Conv3d_0a_1x1/batch_norm/_gamma", 
      "attr": {
        "eps": "0.001", 
        "fix_gamma": "True", 
        "momentum": "0.001", 
        "use_global_stats": "True"
      }, 
      "inputs": []
    }, 
    {
      "op": "null", 
      "name": "flow_imagenet/Mixed_4d/Branch_1/Conv3d_0a_1x1/batch_norm/_beta", 
      "attr": {
        "eps": "0.001", 
        "fix_gamma": "True", 
        "momentum": "0.001", 
        "use_global_stats": "True"
      }, 
      "inputs": []
    }, 
    {
      "op": "null", 
      "name": "flow_imagenet/Mixed_4d/Branch_1/Conv3d_0a_1x1/batch_norm/_moving_mean", 
      "attr": {
        "__init__": "[\"zero\", {}]", 
        "eps": "0.001", 
        "fix_gamma": "True", 
        "momentum": "0.001", 
        "use_global_stats": "True"
      }, 
      "inputs": []
    }, 
    {
      "op": "null", 
      "name": "flow_imagenet/Mixed_4d/Branch_1/Conv3d_0a_1x1/batch_norm/_moving_var", 
      "attr": {
        "__init__": "[\"one\", {}]", 
        "eps": "0.001", 
        "fix_gamma": "True", 
        "momentum": "0.001", 
        "use_global_stats": "True"
      }, 
      "inputs": []
    }, 
    {
      "op": "BatchNorm", 
      "name": "flow_imagenet/Mixed_4d/Branch_1/Conv3d_0a_1x1/batch_norm/", 
      "attr": {
        "eps": "0.001", 
        "fix_gamma": "True", 
        "momentum": "0.001", 
        "use_global_stats": "True"
      }, 
      "inputs": [[241, 0, 0], [242, 0, 0], [243, 0, 0], [244, 0, 1], [245, 0, 1]]
    }, 
    {
      "op": "Activation", 
      "name": "flow_imagenet/Mixed_4d/Branch_1/Conv3d_0a_1x1/relu/", 
      "attr": {"act_type": "relu"}, 
      "inputs": [[246, 0, 0]]
    }, 
    {
      "op": "null", 
      "name": "flow_imagenet/Mixed_4d/Branch_1/Conv3d_0b_3x3/conv_3d/_weight", 
      "attr": {
        "dilate": "(1, 1, 1)", 
        "kernel": "(3, 3, 3)", 
        "no_bias": "True", 
        "num_filter": "256", 
        "pad": "(1, 1, 1)", 
        "stride": "(1, 1, 1)"
      }, 
      "inputs": []
    }, 
    {
      "op": "Convolution", 
      "name": "flow_imagenet/Mixed_4d/Branch_1/Conv3d_0b_3x3/conv_3d/", 
      "attr": {
        "dilate": "(1, 1, 1)", 
        "kernel": "(3, 3, 3)", 
        "no_bias": "True", 
        "num_filter": "256", 
        "pad": "(1, 1, 1)", 
        "stride": "(1, 1, 1)"
      }, 
      "inputs": [[247, 0, 0], [248, 0, 0]]
    }, 
    {
      "op": "null", 
      "name": "flow_imagenet/Mixed_4d/Branch_1/Conv3d_0b_3x3/batch_norm/_gamma", 
      "attr": {
        "eps": "0.001", 
        "fix_gamma": "True", 
        "momentum": "0.001", 
        "use_global_stats": "True"
      }, 
      "inputs": []
    }, 
    {
      "op": "null", 
      "name": "flow_imagenet/Mixed_4d/Branch_1/Conv3d_0b_3x3/batch_norm/_beta", 
      "attr": {
        "eps": "0.001", 
        "fix_gamma": "True", 
        "momentum": "0.001", 
        "use_global_stats": "True"
      }, 
      "inputs": []
    }, 
    {
      "op": "null", 
      "name": "flow_imagenet/Mixed_4d/Branch_1/Conv3d_0b_3x3/batch_norm/_moving_mean", 
      "attr": {
        "__init__": "[\"zero\", {}]", 
        "eps": "0.001", 
        "fix_gamma": "True", 
        "momentum": "0.001", 
        "use_global_stats": "True"
      }, 
      "inputs": []
    }, 
    {
      "op": "null", 
      "name": "flow_imagenet/Mixed_4d/Branch_1/Conv3d_0b_3x3/batch_norm/_moving_var", 
      "attr": {
        "__init__": "[\"one\", {}]", 
        "eps": "0.001", 
        "fix_gamma": "True", 
        "momentum": "0.001", 
        "use_global_stats": "True"
      }, 
      "inputs": []
    }, 
    {
      "op": "BatchNorm", 
      "name": "flow_imagenet/Mixed_4d/Branch_1/Conv3d_0b_3x3/batch_norm/", 
      "attr": {
        "eps": "0.001", 
        "fix_gamma": "True", 
        "momentum": "0.001", 
        "use_global_stats": "True"
      }, 
      "inputs": [[249, 0, 0], [250, 0, 0], [251, 0, 0], [252, 0, 1], [253, 0, 1]]
    }, 
    {
      "op": "Activation", 
      "name": "flow_imagenet/Mixed_4d/Branch_1/Conv3d_0b_3x3/relu/", 
      "attr": {"act_type": "relu"}, 
      "inputs": [[254, 0, 0]]
    }, 
    {
      "op": "null", 
      "name": "flow_imagenet/Mixed_4d/Branch_2/Conv3d_0a_1x1/conv_3d/_weight", 
      "attr": {
        "dilate": "(1, 1, 1)", 
        "kernel": "(1, 1, 1)", 
        "no_bias": "True", 
        "num_filter": "24", 
        "pad": "(0, 0, 0)", 
        "stride": "(1, 1, 1)"
      }, 
      "inputs": []
    }, 
    {
      "op": "Convolution", 
      "name": "flow_imagenet/Mixed_4d/Branch_2/Conv3d_0a_1x1/conv_3d/", 
      "attr": {
        "dilate": "(1, 1, 1)", 
        "kernel": "(1, 1, 1)", 
        "no_bias": "True", 
        "num_filter": "24", 
        "pad": "(0, 0, 0)", 
        "stride": "(1, 1, 1)"
      }, 
      "inputs": [[231, 0, 0], [256, 0, 0]]
    }, 
    {
      "op": "null", 
      "name": "flow_imagenet/Mixed_4d/Branch_2/Conv3d_0a_1x1/batch_norm/_gamma", 
      "attr": {
        "eps": "0.001", 
        "fix_gamma": "True", 
        "momentum": "0.001", 
        "use_global_stats": "True"
      }, 
      "inputs": []
    }, 
    {
      "op": "null", 
      "name": "flow_imagenet/Mixed_4d/Branch_2/Conv3d_0a_1x1/batch_norm/_beta", 
      "attr": {
        "eps": "0.001", 
        "fix_gamma": "True", 
        "momentum": "0.001", 
        "use_global_stats": "True"
      }, 
      "inputs": []
    }, 
    {
      "op": "null", 
      "name": "flow_imagenet/Mixed_4d/Branch_2/Conv3d_0a_1x1/batch_norm/_moving_mean", 
      "attr": {
        "__init__": "[\"zero\", {}]", 
        "eps": "0.001", 
        "fix_gamma": "True", 
        "momentum": "0.001", 
        "use_global_stats": "True"
      }, 
      "inputs": []
    }, 
    {
      "op": "null", 
      "name": "flow_imagenet/Mixed_4d/Branch_2/Conv3d_0a_1x1/batch_norm/_moving_var", 
      "attr": {
        "__init__": "[\"one\", {}]", 
        "eps": "0.001", 
        "fix_gamma": "True", 
        "momentum": "0.001", 
        "use_global_stats": "True"
      }, 
      "inputs": []
    }, 
    {
      "op": "BatchNorm", 
      "name": "flow_imagenet/Mixed_4d/Branch_2/Conv3d_0a_1x1/batch_norm/", 
      "attr": {
        "eps": "0.001", 
        "fix_gamma": "True", 
        "momentum": "0.001", 
        "use_global_stats": "True"
      }, 
      "inputs": [[257, 0, 0], [258, 0, 0], [259, 0, 0], [260, 0, 1], [261, 0, 1]]
    }, 
    {
      "op": "Activation", 
      "name": "flow_imagenet/Mixed_4d/Branch_2/Conv3d_0a_1x1/relu/", 
      "attr": {"act_type": "relu"}, 
      "inputs": [[262, 0, 0]]
    }, 
    {
      "op": "null", 
      "name": "flow_imagenet/Mixed_4d/Branch_2/Conv3d_0b_3x3/conv_3d/_weight", 
      "attr": {
        "dilate": "(1, 1, 1)", 
        "kernel": "(3, 3, 3)", 
        "no_bias": "True", 
        "num_filter": "64", 
        "pad": "(1, 1, 1)", 
        "stride": "(1, 1, 1)"
      }, 
      "inputs": []
    }, 
    {
      "op": "Convolution", 
      "name": "flow_imagenet/Mixed_4d/Branch_2/Conv3d_0b_3x3/conv_3d/", 
      "attr": {
        "dilate": "(1, 1, 1)", 
        "kernel": "(3, 3, 3)", 
        "no_bias": "True", 
        "num_filter": "64", 
        "pad": "(1, 1, 1)", 
        "stride": "(1, 1, 1)"
      }, 
      "inputs": [[263, 0, 0], [264, 0, 0]]
    }, 
    {
      "op": "null", 
      "name": "flow_imagenet/Mixed_4d/Branch_2/Conv3d_0b_3x3/batch_norm/_gamma", 
      "attr": {
        "eps": "0.001", 
        "fix_gamma": "True", 
        "momentum": "0.001", 
        "use_global_stats": "True"
      }, 
      "inputs": []
    }, 
    {
      "op": "null", 
      "name": "flow_imagenet/Mixed_4d/Branch_2/Conv3d_0b_3x3/batch_norm/_beta", 
      "attr": {
        "eps": "0.001", 
        "fix_gamma": "True", 
        "momentum": "0.001", 
        "use_global_stats": "True"
      }, 
      "inputs": []
    }, 
    {
      "op": "null", 
      "name": "flow_imagenet/Mixed_4d/Branch_2/Conv3d_0b_3x3/batch_norm/_moving_mean", 
      "attr": {
        "__init__": "[\"zero\", {}]", 
        "eps": "0.001", 
        "fix_gamma": "True", 
        "momentum": "0.001", 
        "use_global_stats": "True"
      }, 
      "inputs": []
    }, 
    {
      "op": "null", 
      "name": "flow_imagenet/Mixed_4d/Branch_2/Conv3d_0b_3x3/batch_norm/_moving_var", 
      "attr": {
        "__init__": "[\"one\", {}]", 
        "eps": "0.001", 
        "fix_gamma": "True", 
        "momentum": "0.001", 
        "use_global_stats": "True"
      }, 
      "inputs": []
    }, 
    {
      "op": "BatchNorm", 
      "name": "flow_imagenet/Mixed_4d/Branch_2/Conv3d_0b_3x3/batch_norm/", 
      "attr": {
        "eps": "0.001", 
        "fix_gamma": "True", 
        "momentum": "0.001", 
        "use_global_stats": "True"
      }, 
      "inputs": [[265, 0, 0], [266, 0, 0], [267, 0, 0], [268, 0, 1], [269, 0, 1]]
    }, 
    {
      "op": "Activation", 
      "name": "flow_imagenet/Mixed_4d/Branch_2/Conv3d_0b_3x3/relu/", 
      "attr": {"act_type": "relu"}, 
      "inputs": [[270, 0, 0]]
    }, 
    {
      "op": "Pooling", 
      "name": "flow_imagenet/Mixed_4d/Branch_2/MaxPool3d_0a_3x3", 
      "attr": {
        "kernel": "(3, 3, 3)", 
        "pad": "(1, 1, 1)", 
        "pool_type": "max", 
        "pooling_convention": "valid", 
        "stride": "(1, 1, 1)"
      }, 
      "inputs": [[231, 0, 0]]
    }, 
    {
      "op": "null", 
      "name": "flow_imagenet/Mixed_4d/Branch_3/Conv3d_0b_1x1/conv_3d/_weight", 
      "attr": {
        "dilate": "(1, 1, 1)", 
        "kernel": "(1, 1, 1)", 
        "no_bias": "True", 
        "num_filter": "64", 
        "pad": "(0, 0, 0)", 
        "stride": "(1, 1, 1)"
      }, 
      "inputs": []
    }, 
    {
      "op": "Convolution", 
      "name": "flow_imagenet/Mixed_4d/Branch_3/Conv3d_0b_1x1/conv_3d/", 
      "attr": {
        "dilate": "(1, 1, 1)", 
        "kernel": "(1, 1, 1)", 
        "no_bias": "True", 
        "num_filter": "64", 
        "pad": "(0, 0, 0)", 
        "stride": "(1, 1, 1)"
      }, 
      "inputs": [[272, 0, 0], [273, 0, 0]]
    }, 
    {
      "op": "null", 
      "name": "flow_imagenet/Mixed_4d/Branch_3/Conv3d_0b_1x1/batch_norm/_gamma", 
      "attr": {
        "eps": "0.001", 
        "fix_gamma": "True", 
        "momentum": "0.001", 
        "use_global_stats": "True"
      }, 
      "inputs": []
    }, 
    {
      "op": "null", 
      "name": "flow_imagenet/Mixed_4d/Branch_3/Conv3d_0b_1x1/batch_norm/_beta", 
      "attr": {
        "eps": "0.001", 
        "fix_gamma": "True", 
        "momentum": "0.001", 
        "use_global_stats": "True"
      }, 
      "inputs": []
    }, 
    {
      "op": "null", 
      "name": "flow_imagenet/Mixed_4d/Branch_3/Conv3d_0b_1x1/batch_norm/_moving_mean", 
      "attr": {
        "__init__": "[\"zero\", {}]", 
        "eps": "0.001", 
        "fix_gamma": "True", 
        "momentum": "0.001", 
        "use_global_stats": "True"
      }, 
      "inputs": []
    }, 
    {
      "op": "null", 
      "name": "flow_imagenet/Mixed_4d/Branch_3/Conv3d_0b_1x1/batch_norm/_moving_var", 
      "attr": {
        "__init__": "[\"one\", {}]", 
        "eps": "0.001", 
        "fix_gamma": "True", 
        "momentum": "0.001", 
        "use_global_stats": "True"
      }, 
      "inputs": []
    }, 
    {
      "op": "BatchNorm", 
      "name": "flow_imagenet/Mixed_4d/Branch_3/Conv3d_0b_1x1/batch_norm/", 
      "attr": {
        "eps": "0.001", 
        "fix_gamma": "True", 
        "momentum": "0.001", 
        "use_global_stats": "True"
      }, 
      "inputs": [[274, 0, 0], [275, 0, 0], [276, 0, 0], [277, 0, 1], [278, 0, 1]]
    }, 
    {
      "op": "Activation", 
      "name": "flow_imagenet/Mixed_4d/Branch_3/Conv3d_0b_1x1/relu/", 
      "attr": {"act_type": "relu"}, 
      "inputs": [[279, 0, 0]]
    }, 
    {
      "op": "Concat", 
      "name": "flow_imagenet/Mixed_4d/Concat", 
      "attr": {
        "dim": "1", 
        "num_args": "4"
      }, 
      "inputs": [[239, 0, 0], [255, 0, 0], [271, 0, 0], [280, 0, 0]]
    }, 
    {
      "op": "null", 
      "name": "flow_imagenet/Mixed_4e/Branch_0/Conv3d_0a_1x1/conv_3d/_weight", 
      "attr": {
        "dilate": "(1, 1, 1)", 
        "kernel": "(1, 1, 1)", 
        "no_bias": "True", 
        "num_filter": "112", 
        "pad": "(0, 0, 0)", 
        "stride": "(1, 1, 1)"
      }, 
      "inputs": []
    }, 
    {
      "op": "Convolution", 
      "name": "flow_imagenet/Mixed_4e/Branch_0/Conv3d_0a_1x1/conv_3d/", 
      "attr": {
        "dilate": "(1, 1, 1)", 
        "kernel": "(1, 1, 1)", 
        "no_bias": "True", 
        "num_filter": "112", 
        "pad": "(0, 0, 0)", 
        "stride": "(1, 1, 1)"
      }, 
      "inputs": [[281, 0, 0], [282, 0, 0]]
    }, 
    {
      "op": "null", 
      "name": "flow_imagenet/Mixed_4e/Branch_0/Conv3d_0a_1x1/batch_norm/_gamma", 
      "attr": {
        "eps": "0.001", 
        "fix_gamma": "True", 
        "momentum": "0.001", 
        "use_global_stats": "True"
      }, 
      "inputs": []
    }, 
    {
      "op": "null", 
      "name": "flow_imagenet/Mixed_4e/Branch_0/Conv3d_0a_1x1/batch_norm/_beta", 
      "attr": {
        "eps": "0.001", 
        "fix_gamma": "True", 
        "momentum": "0.001", 
        "use_global_stats": "True"
      }, 
      "inputs": []
    }, 
    {
      "op": "null", 
      "name": "flow_imagenet/Mixed_4e/Branch_0/Conv3d_0a_1x1/batch_norm/_moving_mean", 
      "attr": {
        "__init__": "[\"zero\", {}]", 
        "eps": "0.001", 
        "fix_gamma": "True", 
        "momentum": "0.001", 
        "use_global_stats": "True"
      }, 
      "inputs": []
    }, 
    {
      "op": "null", 
      "name": "flow_imagenet/Mixed_4e/Branch_0/Conv3d_0a_1x1/batch_norm/_moving_var", 
      "attr": {
        "__init__": "[\"one\", {}]", 
        "eps": "0.001", 
        "fix_gamma": "True", 
        "momentum": "0.001", 
        "use_global_stats": "True"
      }, 
      "inputs": []
    }, 
    {
      "op": "BatchNorm", 
      "name": "flow_imagenet/Mixed_4e/Branch_0/Conv3d_0a_1x1/batch_norm/", 
      "attr": {
        "eps": "0.001", 
        "fix_gamma": "True", 
        "momentum": "0.001", 
        "use_global_stats": "True"
      }, 
      "inputs": [[283, 0, 0], [284, 0, 0], [285, 0, 0], [286, 0, 1], [287, 0, 1]]
    }, 
    {
      "op": "Activation", 
      "name": "flow_imagenet/Mixed_4e/Branch_0/Conv3d_0a_1x1/relu/", 
      "attr": {"act_type": "relu"}, 
      "inputs": [[288, 0, 0]]
    }, 
    {
      "op": "null", 
      "name": "flow_imagenet/Mixed_4e/Branch_1/Conv3d_0a_1x1/conv_3d/_weight", 
      "attr": {
        "dilate": "(1, 1, 1)", 
        "kernel": "(1, 1, 1)", 
        "no_bias": "True", 
        "num_filter": "144", 
        "pad": "(0, 0, 0)", 
        "stride": "(1, 1, 1)"
      }, 
      "inputs": []
    }, 
    {
      "op": "Convolution", 
      "name": "flow_imagenet/Mixed_4e/Branch_1/Conv3d_0a_1x1/conv_3d/", 
      "attr": {
        "dilate": "(1, 1, 1)", 
        "kernel": "(1, 1, 1)", 
        "no_bias": "True", 
        "num_filter": "144", 
        "pad": "(0, 0, 0)", 
        "stride": "(1, 1, 1)"
      }, 
      "inputs": [[281, 0, 0], [290, 0, 0]]
    }, 
    {
      "op": "null", 
      "name": "flow_imagenet/Mixed_4e/Branch_1/Conv3d_0a_1x1/batch_norm/_gamma", 
      "attr": {
        "eps": "0.001", 
        "fix_gamma": "True", 
        "momentum": "0.001", 
        "use_global_stats": "True"
      }, 
      "inputs": []
    }, 
    {
      "op": "null", 
      "name": "flow_imagenet/Mixed_4e/Branch_1/Conv3d_0a_1x1/batch_norm/_beta", 
      "attr": {
        "eps": "0.001", 
        "fix_gamma": "True", 
        "momentum": "0.001", 
        "use_global_stats": "True"
      }, 
      "inputs": []
    }, 
    {
      "op": "null", 
      "name": "flow_imagenet/Mixed_4e/Branch_1/Conv3d_0a_1x1/batch_norm/_moving_mean", 
      "attr": {
        "__init__": "[\"zero\", {}]", 
        "eps": "0.001", 
        "fix_gamma": "True", 
        "momentum": "0.001", 
        "use_global_stats": "True"
      }, 
      "inputs": []
    }, 
    {
      "op": "null", 
      "name": "flow_imagenet/Mixed_4e/Branch_1/Conv3d_0a_1x1/batch_norm/_moving_var", 
      "attr": {
        "__init__": "[\"one\", {}]", 
        "eps": "0.001", 
        "fix_gamma": "True", 
        "momentum": "0.001", 
        "use_global_stats": "True"
      }, 
      "inputs": []
    }, 
    {
      "op": "BatchNorm", 
      "name": "flow_imagenet/Mixed_4e/Branch_1/Conv3d_0a_1x1/batch_norm/", 
      "attr": {
        "eps": "0.001", 
        "fix_gamma": "True", 
        "momentum": "0.001", 
        "use_global_stats": "True"
      }, 
      "inputs": [[291, 0, 0], [292, 0, 0], [293, 0, 0], [294, 0, 1], [295, 0, 1]]
    }, 
    {
      "op": "Activation", 
      "name": "flow_imagenet/Mixed_4e/Branch_1/Conv3d_0a_1x1/relu/", 
      "attr": {"act_type": "relu"}, 
      "inputs": [[296, 0, 0]]
    }, 
    {
      "op": "null", 
      "name": "flow_imagenet/Mixed_4e/Branch_1/Conv3d_0b_3x3/conv_3d/_weight", 
      "attr": {
        "dilate": "(1, 1, 1)", 
        "kernel": "(3, 3, 3)", 
        "no_bias": "True", 
        "num_filter": "288", 
        "pad": "(1, 1, 1)", 
        "stride": "(1, 1, 1)"
      }, 
      "inputs": []
    }, 
    {
      "op": "Convolution", 
      "name": "flow_imagenet/Mixed_4e/Branch_1/Conv3d_0b_3x3/conv_3d/", 
      "attr": {
        "dilate": "(1, 1, 1)", 
        "kernel": "(3, 3, 3)", 
        "no_bias": "True", 
        "num_filter": "288", 
        "pad": "(1, 1, 1)", 
        "stride": "(1, 1, 1)"
      }, 
      "inputs": [[297, 0, 0], [298, 0, 0]]
    }, 
    {
      "op": "null", 
      "name": "flow_imagenet/Mixed_4e/Branch_1/Conv3d_0b_3x3/batch_norm/_gamma", 
      "attr": {
        "eps": "0.001", 
        "fix_gamma": "True", 
        "momentum": "0.001", 
        "use_global_stats": "True"
      }, 
      "inputs": []
    }, 
    {
      "op": "null", 
      "name": "flow_imagenet/Mixed_4e/Branch_1/Conv3d_0b_3x3/batch_norm/_beta", 
      "attr": {
        "eps": "0.001", 
        "fix_gamma": "True", 
        "momentum": "0.001", 
        "use_global_stats": "True"
      }, 
      "inputs": []
    }, 
    {
      "op": "null", 
      "name": "flow_imagenet/Mixed_4e/Branch_1/Conv3d_0b_3x3/batch_norm/_moving_mean", 
      "attr": {
        "__init__": "[\"zero\", {}]", 
        "eps": "0.001", 
        "fix_gamma": "True", 
        "momentum": "0.001", 
        "use_global_stats": "True"
      }, 
      "inputs": []
    }, 
    {
      "op": "null", 
      "name": "flow_imagenet/Mixed_4e/Branch_1/Conv3d_0b_3x3/batch_norm/_moving_var", 
      "attr": {
        "__init__": "[\"one\", {}]", 
        "eps": "0.001", 
        "fix_gamma": "True", 
        "momentum": "0.001", 
        "use_global_stats": "True"
      }, 
      "inputs": []
    }, 
    {
      "op": "BatchNorm", 
      "name": "flow_imagenet/Mixed_4e/Branch_1/Conv3d_0b_3x3/batch_norm/", 
      "attr": {
        "eps": "0.001", 
        "fix_gamma": "True", 
        "momentum": "0.001", 
        "use_global_stats": "True"
      }, 
      "inputs": [[299, 0, 0], [300, 0, 0], [301, 0, 0], [302, 0, 1], [303, 0, 1]]
    }, 
    {
      "op": "Activation", 
      "name": "flow_imagenet/Mixed_4e/Branch_1/Conv3d_0b_3x3/relu/", 
      "attr": {"act_type": "relu"}, 
      "inputs": [[304, 0, 0]]
    }, 
    {
      "op": "null", 
      "name": "flow_imagenet/Mixed_4e/Branch_2/Conv3d_0a_1x1/conv_3d/_weight", 
      "attr": {
        "dilate": "(1, 1, 1)", 
        "kernel": "(1, 1, 1)", 
        "no_bias": "True", 
        "num_filter": "32", 
        "pad": "(0, 0, 0)", 
        "stride": "(1, 1, 1)"
      }, 
      "inputs": []
    }, 
    {
      "op": "Convolution", 
      "name": "flow_imagenet/Mixed_4e/Branch_2/Conv3d_0a_1x1/conv_3d/", 
      "attr": {
        "dilate": "(1, 1, 1)", 
        "kernel": "(1, 1, 1)", 
        "no_bias": "True", 
        "num_filter": "32", 
        "pad": "(0, 0, 0)", 
        "stride": "(1, 1, 1)"
      }, 
      "inputs": [[281, 0, 0], [306, 0, 0]]
    }, 
    {
      "op": "null", 
      "name": "flow_imagenet/Mixed_4e/Branch_2/Conv3d_0a_1x1/batch_norm/_gamma", 
      "attr": {
        "eps": "0.001", 
        "fix_gamma": "True", 
        "momentum": "0.001", 
        "use_global_stats": "True"
      }, 
      "inputs": []
    }, 
    {
      "op": "null", 
      "name": "flow_imagenet/Mixed_4e/Branch_2/Conv3d_0a_1x1/batch_norm/_beta", 
      "attr": {
        "eps": "0.001", 
        "fix_gamma": "True", 
        "momentum": "0.001", 
        "use_global_stats": "True"
      }, 
      "inputs": []
    }, 
    {
      "op": "null", 
      "name": "flow_imagenet/Mixed_4e/Branch_2/Conv3d_0a_1x1/batch_norm/_moving_mean", 
      "attr": {
        "__init__": "[\"zero\", {}]", 
        "eps": "0.001", 
        "fix_gamma": "True", 
        "momentum": "0.001", 
        "use_global_stats": "True"
      }, 
      "inputs": []
    }, 
    {
      "op": "null", 
      "name": "flow_imagenet/Mixed_4e/Branch_2/Conv3d_0a_1x1/batch_norm/_moving_var", 
      "attr": {
        "__init__": "[\"one\", {}]", 
        "eps": "0.001", 
        "fix_gamma": "True", 
        "momentum": "0.001", 
        "use_global_stats": "True"
      }, 
      "inputs": []
    }, 
    {
      "op": "BatchNorm", 
      "name": "flow_imagenet/Mixed_4e/Branch_2/Conv3d_0a_1x1/batch_norm/", 
      "attr": {
        "eps": "0.001", 
        "fix_gamma": "True", 
        "momentum": "0.001", 
        "use_global_stats": "True"
      }, 
      "inputs": [[307, 0, 0], [308, 0, 0], [309, 0, 0], [310, 0, 1], [311, 0, 1]]
    }, 
    {
      "op": "Activation", 
      "name": "flow_imagenet/Mixed_4e/Branch_2/Conv3d_0a_1x1/relu/", 
      "attr": {"act_type": "relu"}, 
      "inputs": [[312, 0, 0]]
    }, 
    {
      "op": "null", 
      "name": "flow_imagenet/Mixed_4e/Branch_2/Conv3d_0b_3x3/conv_3d/_weight", 
      "attr": {
        "dilate": "(1, 1, 1)", 
        "kernel": "(3, 3, 3)", 
        "no_bias": "True", 
        "num_filter": "64", 
        "pad": "(1, 1, 1)", 
        "stride": "(1, 1, 1)"
      }, 
      "inputs": []
    }, 
    {
      "op": "Convolution", 
      "name": "flow_imagenet/Mixed_4e/Branch_2/Conv3d_0b_3x3/conv_3d/", 
      "attr": {
        "dilate": "(1, 1, 1)", 
        "kernel": "(3, 3, 3)", 
        "no_bias": "True", 
        "num_filter": "64", 
        "pad": "(1, 1, 1)", 
        "stride": "(1, 1, 1)"
      }, 
      "inputs": [[313, 0, 0], [314, 0, 0]]
    }, 
    {
      "op": "null", 
      "name": "flow_imagenet/Mixed_4e/Branch_2/Conv3d_0b_3x3/batch_norm/_gamma", 
      "attr": {
        "eps": "0.001", 
        "fix_gamma": "True", 
        "momentum": "0.001", 
        "use_global_stats": "True"
      }, 
      "inputs": []
    }, 
    {
      "op": "null", 
      "name": "flow_imagenet/Mixed_4e/Branch_2/Conv3d_0b_3x3/batch_norm/_beta", 
      "attr": {
        "eps": "0.001", 
        "fix_gamma": "True", 
        "momentum": "0.001", 
        "use_global_stats": "True"
      }, 
      "inputs": []
    }, 
    {
      "op": "null", 
      "name": "flow_imagenet/Mixed_4e/Branch_2/Conv3d_0b_3x3/batch_norm/_moving_mean", 
      "attr": {
        "__init__": "[\"zero\", {}]", 
        "eps": "0.001", 
        "fix_gamma": "True", 
        "momentum": "0.001", 
        "use_global_stats": "True"
      }, 
      "inputs": []
    }, 
    {
      "op": "null", 
      "name": "flow_imagenet/Mixed_4e/Branch_2/Conv3d_0b_3x3/batch_norm/_moving_var", 
      "attr": {
        "__init__": "[\"one\", {}]", 
        "eps": "0.001", 
        "fix_gamma": "True", 
        "momentum": "0.001", 
        "use_global_stats": "True"
      }, 
      "inputs": []
    }, 
    {
      "op": "BatchNorm", 
      "name": "flow_imagenet/Mixed_4e/Branch_2/Conv3d_0b_3x3/batch_norm/", 
      "attr": {
        "eps": "0.001", 
        "fix_gamma": "True", 
        "momentum": "0.001", 
        "use_global_stats": "True"
      }, 
      "inputs": [[315, 0, 0], [316, 0, 0], [317, 0, 0], [318, 0, 1], [319, 0, 1]]
    }, 
    {
      "op": "Activation", 
      "name": "flow_imagenet/Mixed_4e/Branch_2/Conv3d_0b_3x3/relu/", 
      "attr": {"act_type": "relu"}, 
      "inputs": [[320, 0, 0]]
    }, 
    {
      "op": "Pooling", 
      "name": "flow_imagenet/Mixed_4e/Branch_2/MaxPool3d_0a_3x3", 
      "attr": {
        "kernel": "(3, 3, 3)", 
        "pad": "(1, 1, 1)", 
        "pool_type": "max", 
        "pooling_convention": "valid", 
        "stride": "(1, 1, 1)"
      }, 
      "inputs": [[281, 0, 0]]
    }, 
    {
      "op": "null", 
      "name": "flow_imagenet/Mixed_4e/Branch_3/Conv3d_0b_1x1/conv_3d/_weight", 
      "attr": {
        "dilate": "(1, 1, 1)", 
        "kernel": "(1, 1, 1)", 
        "no_bias": "True", 
        "num_filter": "64", 
        "pad": "(0, 0, 0)", 
        "stride": "(1, 1, 1)"
      }, 
      "inputs": []
    }, 
    {
      "op": "Convolution", 
      "name": "flow_imagenet/Mixed_4e/Branch_3/Conv3d_0b_1x1/conv_3d/", 
      "attr": {
        "dilate": "(1, 1, 1)", 
        "kernel": "(1, 1, 1)", 
        "no_bias": "True", 
        "num_filter": "64", 
        "pad": "(0, 0, 0)", 
        "stride": "(1, 1, 1)"
      }, 
      "inputs": [[322, 0, 0], [323, 0, 0]]
    }, 
    {
      "op": "null", 
      "name": "flow_imagenet/Mixed_4e/Branch_3/Conv3d_0b_1x1/batch_norm/_gamma", 
      "attr": {
        "eps": "0.001", 
        "fix_gamma": "True", 
        "momentum": "0.001", 
        "use_global_stats": "True"
      }, 
      "inputs": []
    }, 
    {
      "op": "null", 
      "name": "flow_imagenet/Mixed_4e/Branch_3/Conv3d_0b_1x1/batch_norm/_beta", 
      "attr": {
        "eps": "0.001", 
        "fix_gamma": "True", 
        "momentum": "0.001", 
        "use_global_stats": "True"
      }, 
      "inputs": []
    }, 
    {
      "op": "null", 
      "name": "flow_imagenet/Mixed_4e/Branch_3/Conv3d_0b_1x1/batch_norm/_moving_mean", 
      "attr": {
        "__init__": "[\"zero\", {}]", 
        "eps": "0.001", 
        "fix_gamma": "True", 
        "momentum": "0.001", 
        "use_global_stats": "True"
      }, 
      "inputs": []
    }, 
    {
      "op": "null", 
      "name": "flow_imagenet/Mixed_4e/Branch_3/Conv3d_0b_1x1/batch_norm/_moving_var", 
      "attr": {
        "__init__": "[\"one\", {}]", 
        "eps": "0.001", 
        "fix_gamma": "True", 
        "momentum": "0.001", 
        "use_global_stats": "True"
      }, 
      "inputs": []
    }, 
    {
      "op": "BatchNorm", 
      "name": "flow_imagenet/Mixed_4e/Branch_3/Conv3d_0b_1x1/batch_norm/", 
      "attr": {
        "eps": "0.001", 
        "fix_gamma": "True", 
        "momentum": "0.001", 
        "use_global_stats": "True"
      }, 
      "inputs": [[324, 0, 0], [325, 0, 0], [326, 0, 0], [327, 0, 1], [328, 0, 1]]
    }, 
    {
      "op": "Activation", 
      "name": "flow_imagenet/Mixed_4e/Branch_3/Conv3d_0b_1x1/relu/", 
      "attr": {"act_type": "relu"}, 
      "inputs": [[329, 0, 0]]
    }, 
    {
      "op": "Concat", 
      "name": "flow_imagenet/Mixed_4e/Concat", 
      "attr": {
        "dim": "1", 
        "num_args": "4"
      }, 
      "inputs": [[289, 0, 0], [305, 0, 0], [321, 0, 0], [330, 0, 0]]
    }, 
    {
      "op": "null", 
      "name": "flow_imagenet/Mixed_4f/Branch_0/Conv3d_0a_1x1/conv_3d/_weight", 
      "attr": {
        "dilate": "(1, 1, 1)", 
        "kernel": "(1, 1, 1)", 
        "no_bias": "True", 
        "num_filter": "256", 
        "pad": "(0, 0, 0)", 
        "stride": "(1, 1, 1)"
      }, 
      "inputs": []
    }, 
    {
      "op": "Convolution", 
      "name": "flow_imagenet/Mixed_4f/Branch_0/Conv3d_0a_1x1/conv_3d/", 
      "attr": {
        "dilate": "(1, 1, 1)", 
        "kernel": "(1, 1, 1)", 
        "no_bias": "True", 
        "num_filter": "256", 
        "pad": "(0, 0, 0)", 
        "stride": "(1, 1, 1)"
      }, 
      "inputs": [[331, 0, 0], [332, 0, 0]]
    }, 
    {
      "op": "null", 
      "name": "flow_imagenet/Mixed_4f/Branch_0/Conv3d_0a_1x1/batch_norm/_gamma", 
      "attr": {
        "eps": "0.001", 
        "fix_gamma": "True", 
        "momentum": "0.001", 
        "use_global_stats": "True"
      }, 
      "inputs": []
    }, 
    {
      "op": "null", 
      "name": "flow_imagenet/Mixed_4f/Branch_0/Conv3d_0a_1x1/batch_norm/_beta", 
      "attr": {
        "eps": "0.001", 
        "fix_gamma": "True", 
        "momentum": "0.001", 
        "use_global_stats": "True"
      }, 
      "inputs": []
    }, 
    {
      "op": "null", 
      "name": "flow_imagenet/Mixed_4f/Branch_0/Conv3d_0a_1x1/batch_norm/_moving_mean", 
      "attr": {
        "__init__": "[\"zero\", {}]", 
        "eps": "0.001", 
        "fix_gamma": "True", 
        "momentum": "0.001", 
        "use_global_stats": "True"
      }, 
      "inputs": []
    }, 
    {
      "op": "null", 
      "name": "flow_imagenet/Mixed_4f/Branch_0/Conv3d_0a_1x1/batch_norm/_moving_var", 
      "attr": {
        "__init__": "[\"one\", {}]", 
        "eps": "0.001", 
        "fix_gamma": "True", 
        "momentum": "0.001", 
        "use_global_stats": "True"
      }, 
      "inputs": []
    }, 
    {
      "op": "BatchNorm", 
      "name": "flow_imagenet/Mixed_4f/Branch_0/Conv3d_0a_1x1/batch_norm/", 
      "attr": {
        "eps": "0.001", 
        "fix_gamma": "True", 
        "momentum": "0.001", 
        "use_global_stats": "True"
      }, 
      "inputs": [[333, 0, 0], [334, 0, 0], [335, 0, 0], [336, 0, 1], [337, 0, 1]]
    }, 
    {
      "op": "Activation", 
      "name": "flow_imagenet/Mixed_4f/Branch_0/Conv3d_0a_1x1/relu/", 
      "attr": {"act_type": "relu"}, 
      "inputs": [[338, 0, 0]]
    }, 
    {
      "op": "null", 
      "name": "flow_imagenet/Mixed_4f/Branch_1/Conv3d_0a_1x1/conv_3d/_weight", 
      "attr": {
        "dilate": "(1, 1, 1)", 
        "kernel": "(1, 1, 1)", 
        "no_bias": "True", 
        "num_filter": "160", 
        "pad": "(0, 0, 0)", 
        "stride": "(1, 1, 1)"
      }, 
      "inputs": []
    }, 
    {
      "op": "Convolution", 
      "name": "flow_imagenet/Mixed_4f/Branch_1/Conv3d_0a_1x1/conv_3d/", 
      "attr": {
        "dilate": "(1, 1, 1)", 
        "kernel": "(1, 1, 1)", 
        "no_bias": "True", 
        "num_filter": "160", 
        "pad": "(0, 0, 0)", 
        "stride": "(1, 1, 1)"
      }, 
      "inputs": [[331, 0, 0], [340, 0, 0]]
    }, 
    {
      "op": "null", 
      "name": "flow_imagenet/Mixed_4f/Branch_1/Conv3d_0a_1x1/batch_norm/_gamma", 
      "attr": {
        "eps": "0.001", 
        "fix_gamma": "True", 
        "momentum": "0.001", 
        "use_global_stats": "True"
      }, 
      "inputs": []
    }, 
    {
      "op": "null", 
      "name": "flow_imagenet/Mixed_4f/Branch_1/Conv3d_0a_1x1/batch_norm/_beta", 
      "attr": {
        "eps": "0.001", 
        "fix_gamma": "True", 
        "momentum": "0.001", 
        "use_global_stats": "True"
      }, 
      "inputs": []
    }, 
    {
      "op": "null", 
      "name": "flow_imagenet/Mixed_4f/Branch_1/Conv3d_0a_1x1/batch_norm/_moving_mean", 
      "attr": {
        "__init__": "[\"zero\", {}]", 
        "eps": "0.001", 
        "fix_gamma": "True", 
        "momentum": "0.001", 
        "use_global_stats": "True"
      }, 
      "inputs": []
    }, 
    {
      "op": "null", 
      "name": "flow_imagenet/Mixed_4f/Branch_1/Conv3d_0a_1x1/batch_norm/_moving_var", 
      "attr": {
        "__init__": "[\"one\", {}]", 
        "eps": "0.001", 
        "fix_gamma": "True", 
        "momentum": "0.001", 
        "use_global_stats": "True"
      }, 
      "inputs": []
    }, 
    {
      "op": "BatchNorm", 
      "name": "flow_imagenet/Mixed_4f/Branch_1/Conv3d_0a_1x1/batch_norm/", 
      "attr": {
        "eps": "0.001", 
        "fix_gamma": "True", 
        "momentum": "0.001", 
        "use_global_stats": "True"
      }, 
      "inputs": [[341, 0, 0], [342, 0, 0], [343, 0, 0], [344, 0, 1], [345, 0, 1]]
    }, 
    {
      "op": "Activation", 
      "name": "flow_imagenet/Mixed_4f/Branch_1/Conv3d_0a_1x1/relu/", 
      "attr": {"act_type": "relu"}, 
      "inputs": [[346, 0, 0]]
    }, 
    {
      "op": "null", 
      "name": "flow_imagenet/Mixed_4f/Branch_1/Conv3d_0b_3x3/conv_3d/_weight", 
      "attr": {
        "dilate": "(1, 1, 1)", 
        "kernel": "(3, 3, 3)", 
        "no_bias": "True", 
        "num_filter": "320", 
        "pad": "(1, 1, 1)", 
        "stride": "(1, 1, 1)"
      }, 
      "inputs": []
    }, 
    {
      "op": "Convolution", 
      "name": "flow_imagenet/Mixed_4f/Branch_1/Conv3d_0b_3x3/conv_3d/", 
      "attr": {
        "dilate": "(1, 1, 1)", 
        "kernel": "(3, 3, 3)", 
        "no_bias": "True", 
        "num_filter": "320", 
        "pad": "(1, 1, 1)", 
        "stride": "(1, 1, 1)"
      }, 
      "inputs": [[347, 0, 0], [348, 0, 0]]
    }, 
    {
      "op": "null", 
      "name": "flow_imagenet/Mixed_4f/Branch_1/Conv3d_0b_3x3/batch_norm/_gamma", 
      "attr": {
        "eps": "0.001", 
        "fix_gamma": "True", 
        "momentum": "0.001", 
        "use_global_stats": "True"
      }, 
      "inputs": []
    }, 
    {
      "op": "null", 
      "name": "flow_imagenet/Mixed_4f/Branch_1/Conv3d_0b_3x3/batch_norm/_beta", 
      "attr": {
        "eps": "0.001", 
        "fix_gamma": "True", 
        "momentum": "0.001", 
        "use_global_stats": "True"
      }, 
      "inputs": []
    }, 
    {
      "op": "null", 
      "name": "flow_imagenet/Mixed_4f/Branch_1/Conv3d_0b_3x3/batch_norm/_moving_mean", 
      "attr": {
        "__init__": "[\"zero\", {}]", 
        "eps": "0.001", 
        "fix_gamma": "True", 
        "momentum": "0.001", 
        "use_global_stats": "True"
      }, 
      "inputs": []
    }, 
    {
      "op": "null", 
      "name": "flow_imagenet/Mixed_4f/Branch_1/Conv3d_0b_3x3/batch_norm/_moving_var", 
      "attr": {
        "__init__": "[\"one\", {}]", 
        "eps": "0.001", 
        "fix_gamma": "True", 
        "momentum": "0.001", 
        "use_global_stats": "True"
      }, 
      "inputs": []
    }, 
    {
      "op": "BatchNorm", 
      "name": "flow_imagenet/Mixed_4f/Branch_1/Conv3d_0b_3x3/batch_norm/", 
      "attr": {
        "eps": "0.001", 
        "fix_gamma": "True", 
        "momentum": "0.001", 
        "use_global_stats": "True"
      }, 
      "inputs": [[349, 0, 0], [350, 0, 0], [351, 0, 0], [352, 0, 1], [353, 0, 1]]
    }, 
    {
      "op": "Activation", 
      "name": "flow_imagenet/Mixed_4f/Branch_1/Conv3d_0b_3x3/relu/", 
      "attr": {"act_type": "relu"}, 
      "inputs": [[354, 0, 0]]
    }, 
    {
      "op": "null", 
      "name": "flow_imagenet/Mixed_4f/Branch_2/Conv3d_0a_1x1/conv_3d/_weight", 
      "attr": {
        "dilate": "(1, 1, 1)", 
        "kernel": "(1, 1, 1)", 
        "no_bias": "True", 
        "num_filter": "32", 
        "pad": "(0, 0, 0)", 
        "stride": "(1, 1, 1)"
      }, 
      "inputs": []
    }, 
    {
      "op": "Convolution", 
      "name": "flow_imagenet/Mixed_4f/Branch_2/Conv3d_0a_1x1/conv_3d/", 
      "attr": {
        "dilate": "(1, 1, 1)", 
        "kernel": "(1, 1, 1)", 
        "no_bias": "True", 
        "num_filter": "32", 
        "pad": "(0, 0, 0)", 
        "stride": "(1, 1, 1)"
      }, 
      "inputs": [[331, 0, 0], [356, 0, 0]]
    }, 
    {
      "op": "null", 
      "name": "flow_imagenet/Mixed_4f/Branch_2/Conv3d_0a_1x1/batch_norm/_gamma", 
      "attr": {
        "eps": "0.001", 
        "fix_gamma": "True", 
        "momentum": "0.001", 
        "use_global_stats": "True"
      }, 
      "inputs": []
    }, 
    {
      "op": "null", 
      "name": "flow_imagenet/Mixed_4f/Branch_2/Conv3d_0a_1x1/batch_norm/_beta", 
      "attr": {
        "eps": "0.001", 
        "fix_gamma": "True", 
        "momentum": "0.001", 
        "use_global_stats": "True"
      }, 
      "inputs": []
    }, 
    {
      "op": "null", 
      "name": "flow_imagenet/Mixed_4f/Branch_2/Conv3d_0a_1x1/batch_norm/_moving_mean", 
      "attr": {
        "__init__": "[\"zero\", {}]", 
        "eps": "0.001", 
        "fix_gamma": "True", 
        "momentum": "0.001", 
        "use_global_stats": "True"
      }, 
      "inputs": []
    }, 
    {
      "op": "null", 
      "name": "flow_imagenet/Mixed_4f/Branch_2/Conv3d_0a_1x1/batch_norm/_moving_var", 
      "attr": {
        "__init__": "[\"one\", {}]", 
        "eps": "0.001", 
        "fix_gamma": "True", 
        "momentum": "0.001", 
        "use_global_stats": "True"
      }, 
      "inputs": []
    }, 
    {
      "op": "BatchNorm", 
      "name": "flow_imagenet/Mixed_4f/Branch_2/Conv3d_0a_1x1/batch_norm/", 
      "attr": {
        "eps": "0.001", 
        "fix_gamma": "True", 
        "momentum": "0.001", 
        "use_global_stats": "True"
      }, 
      "inputs": [[357, 0, 0], [358, 0, 0], [359, 0, 0], [360, 0, 1], [361, 0, 1]]
    }, 
    {
      "op": "Activation", 
      "name": "flow_imagenet/Mixed_4f/Branch_2/Conv3d_0a_1x1/relu/", 
      "attr": {"act_type": "relu"}, 
      "inputs": [[362, 0, 0]]
    }, 
    {
      "op": "null", 
      "name": "flow_imagenet/Mixed_4f/Branch_2/Conv3d_0b_3x3/conv_3d/_weight", 
      "attr": {
        "dilate": "(1, 1, 1)", 
        "kernel": "(3, 3, 3)", 
        "no_bias": "True", 
        "num_filter": "128", 
        "pad": "(1, 1, 1)", 
        "stride": "(1, 1, 1)"
      }, 
      "inputs": []
    }, 
    {
      "op": "Convolution", 
      "name": "flow_imagenet/Mixed_4f/Branch_2/Conv3d_0b_3x3/conv_3d/", 
      "attr": {
        "dilate": "(1, 1, 1)", 
        "kernel": "(3, 3, 3)", 
        "no_bias": "True", 
        "num_filter": "128", 
        "pad": "(1, 1, 1)", 
        "stride": "(1, 1, 1)"
      }, 
      "inputs": [[363, 0, 0], [364, 0, 0]]
    }, 
    {
      "op": "null", 
      "name": "flow_imagenet/Mixed_4f/Branch_2/Conv3d_0b_3x3/batch_norm/_gamma", 
      "attr": {
        "eps": "0.001", 
        "fix_gamma": "True", 
        "momentum": "0.001", 
        "use_global_stats": "True"
      }, 
      "inputs": []
    }, 
    {
      "op": "null", 
      "name": "flow_imagenet/Mixed_4f/Branch_2/Conv3d_0b_3x3/batch_norm/_beta", 
      "attr": {
        "eps": "0.001", 
        "fix_gamma": "True", 
        "momentum": "0.001", 
        "use_global_stats": "True"
      }, 
      "inputs": []
    }, 
    {
      "op": "null", 
      "name": "flow_imagenet/Mixed_4f/Branch_2/Conv3d_0b_3x3/batch_norm/_moving_mean", 
      "attr": {
        "__init__": "[\"zero\", {}]", 
        "eps": "0.001", 
        "fix_gamma": "True", 
        "momentum": "0.001", 
        "use_global_stats": "True"
      }, 
      "inputs": []
    }, 
    {
      "op": "null", 
      "name": "flow_imagenet/Mixed_4f/Branch_2/Conv3d_0b_3x3/batch_norm/_moving_var", 
      "attr": {
        "__init__": "[\"one\", {}]", 
        "eps": "0.001", 
        "fix_gamma": "True", 
        "momentum": "0.001", 
        "use_global_stats": "True"
      }, 
      "inputs": []
    }, 
    {
      "op": "BatchNorm", 
      "name": "flow_imagenet/Mixed_4f/Branch_2/Conv3d_0b_3x3/batch_norm/", 
      "attr": {
        "eps": "0.001", 
        "fix_gamma": "True", 
        "momentum": "0.001", 
        "use_global_stats": "True"
      }, 
      "inputs": [[365, 0, 0], [366, 0, 0], [367, 0, 0], [368, 0, 1], [369, 0, 1]]
    }, 
    {
      "op": "Activation", 
      "name": "flow_imagenet/Mixed_4f/Branch_2/Conv3d_0b_3x3/relu/", 
      "attr": {"act_type": "relu"}, 
      "inputs": [[370, 0, 0]]
    }, 
    {
      "op": "Pooling", 
      "name": "flow_imagenet/Mixed_4f/Branch_2/MaxPool3d_0a_3x3", 
      "attr": {
        "kernel": "(3, 3, 3)", 
        "pad": "(1, 1, 1)", 
        "pool_type": "max", 
        "pooling_convention": "valid", 
        "stride": "(1, 1, 1)"
      }, 
      "inputs": [[331, 0, 0]]
    }, 
    {
      "op": "null", 
      "name": "flow_imagenet/Mixed_4f/Branch_3/Conv3d_0b_1x1/conv_3d/_weight", 
      "attr": {
        "dilate": "(1, 1, 1)", 
        "kernel": "(1, 1, 1)", 
        "no_bias": "True", 
        "num_filter": "128", 
        "pad": "(0, 0, 0)", 
        "stride": "(1, 1, 1)"
      }, 
      "inputs": []
    }, 
    {
      "op": "Convolution", 
      "name": "flow_imagenet/Mixed_4f/Branch_3/Conv3d_0b_1x1/conv_3d/", 
      "attr": {
        "dilate": "(1, 1, 1)", 
        "kernel": "(1, 1, 1)", 
        "no_bias": "True", 
        "num_filter": "128", 
        "pad": "(0, 0, 0)", 
        "stride": "(1, 1, 1)"
      }, 
      "inputs": [[372, 0, 0], [373, 0, 0]]
    }, 
    {
      "op": "null", 
      "name": "flow_imagenet/Mixed_4f/Branch_3/Conv3d_0b_1x1/batch_norm/_gamma", 
      "attr": {
        "eps": "0.001", 
        "fix_gamma": "True", 
        "momentum": "0.001", 
        "use_global_stats": "True"
      }, 
      "inputs": []
    }, 
    {
      "op": "null", 
      "name": "flow_imagenet/Mixed_4f/Branch_3/Conv3d_0b_1x1/batch_norm/_beta", 
      "attr": {
        "eps": "0.001", 
        "fix_gamma": "True", 
        "momentum": "0.001", 
        "use_global_stats": "True"
      }, 
      "inputs": []
    }, 
    {
      "op": "null", 
      "name": "flow_imagenet/Mixed_4f/Branch_3/Conv3d_0b_1x1/batch_norm/_moving_mean", 
      "attr": {
        "__init__": "[\"zero\", {}]", 
        "eps": "0.001", 
        "fix_gamma": "True", 
        "momentum": "0.001", 
        "use_global_stats": "True"
      }, 
      "inputs": []
    }, 
    {
      "op": "null", 
      "name": "flow_imagenet/Mixed_4f/Branch_3/Conv3d_0b_1x1/batch_norm/_moving_var", 
      "attr": {
        "__init__": "[\"one\", {}]", 
        "eps": "0.001", 
        "fix_gamma": "True", 
        "momentum": "0.001", 
        "use_global_stats": "True"
      }, 
      "inputs": []
    }, 
    {
      "op": "BatchNorm", 
      "name": "flow_imagenet/Mixed_4f/Branch_3/Conv3d_0b_1x1/batch_norm/", 
      "attr": {
        "eps": "0.001", 
        "fix_gamma": "True", 
        "momentum": "0.001", 
        "use_global_stats": "True"
      }, 
      "inputs": [[374, 0, 0], [375, 0, 0], [376, 0, 0], [377, 0, 1], [378, 0, 1]]
    }, 
    {
      "op": "Activation", 
      "name": "flow_imagenet/Mixed_4f/Branch_3/Conv3d_0b_1x1/relu/", 
      "attr": {"act_type": "relu"}, 
      "inputs": [[379, 0, 0]]
    }, 
    {
      "op": "Concat", 
      "name": "flow_imagenet/Mixed_4f/Concat", 
      "attr": {
        "dim": "1", 
        "num_args": "4"
      }, 
      "inputs": [[339, 0, 0], [355, 0, 0], [371, 0, 0], [380, 0, 0]]
    }, 
    {
      "op": "Pooling", 
      "name": "flow_imagenet/MaxPool3d_5a_2x2/", 
      "attr": {
        "kernel": "(2, 2, 2)", 
        "pad": "(0, 0, 0)", 
        "pool_type": "max", 
        "pooling_convention": "valid", 
        "stride": "(2, 2, 2)"
      }, 
      "inputs": [[381, 0, 0]]
    }, 
    {
      "op": "null", 
      "name": "flow_imagenet/Mixed_5b/Branch_0/Conv3d_0a_1x1/conv_3d/_weight", 
      "attr": {
        "dilate": "(1, 1, 1)", 
        "kernel": "(1, 1, 1)", 
        "no_bias": "True", 
        "num_filter": "256", 
        "pad": "(0, 0, 0)", 
        "stride": "(1, 1, 1)"
      }, 
      "inputs": []
    }, 
    {
      "op": "Convolution", 
      "name": "flow_imagenet/Mixed_5b/Branch_0/Conv3d_0a_1x1/conv_3d/", 
      "attr": {
        "dilate": "(1, 1, 1)", 
        "kernel": "(1, 1, 1)", 
        "no_bias": "True", 
        "num_filter": "256", 
        "pad": "(0, 0, 0)", 
        "stride": "(1, 1, 1)"
      }, 
      "inputs": [[382, 0, 0], [383, 0, 0]]
    }, 
    {
      "op": "null", 
      "name": "flow_imagenet/Mixed_5b/Branch_0/Conv3d_0a_1x1/batch_norm/_gamma", 
      "attr": {
        "eps": "0.001", 
        "fix_gamma": "True", 
        "momentum": "0.001", 
        "use_global_stats": "True"
      }, 
      "inputs": []
    }, 
    {
      "op": "null", 
      "name": "flow_imagenet/Mixed_5b/Branch_0/Conv3d_0a_1x1/batch_norm/_beta", 
      "attr": {
        "eps": "0.001", 
        "fix_gamma": "True", 
        "momentum": "0.001", 
        "use_global_stats": "True"
      }, 
      "inputs": []
    }, 
    {
      "op": "null", 
      "name": "flow_imagenet/Mixed_5b/Branch_0/Conv3d_0a_1x1/batch_norm/_moving_mean", 
      "attr": {
        "__init__": "[\"zero\", {}]", 
        "eps": "0.001", 
        "fix_gamma": "True", 
        "momentum": "0.001", 
        "use_global_stats": "True"
      }, 
      "inputs": []
    }, 
    {
      "op": "null", 
      "name": "flow_imagenet/Mixed_5b/Branch_0/Conv3d_0a_1x1/batch_norm/_moving_var", 
      "attr": {
        "__init__": "[\"one\", {}]", 
        "eps": "0.001", 
        "fix_gamma": "True", 
        "momentum": "0.001", 
        "use_global_stats": "True"
      }, 
      "inputs": []
    }, 
    {
      "op": "BatchNorm", 
      "name": "flow_imagenet/Mixed_5b/Branch_0/Conv3d_0a_1x1/batch_norm/", 
      "attr": {
        "eps": "0.001", 
        "fix_gamma": "True", 
        "momentum": "0.001", 
        "use_global_stats": "True"
      }, 
      "inputs": [[384, 0, 0], [385, 0, 0], [386, 0, 0], [387, 0, 1], [388, 0, 1]]
    }, 
    {
      "op": "Activation", 
      "name": "flow_imagenet/Mixed_5b/Branch_0/Conv3d_0a_1x1/relu/", 
      "attr": {"act_type": "relu"}, 
      "inputs": [[389, 0, 0]]
    }, 
    {
      "op": "null", 
      "name": "flow_imagenet/Mixed_5b/Branch_1/Conv3d_0a_1x1/conv_3d/_weight", 
      "attr": {
        "dilate": "(1, 1, 1)", 
        "kernel": "(1, 1, 1)", 
        "no_bias": "True", 
        "num_filter": "160", 
        "pad": "(0, 0, 0)", 
        "stride": "(1, 1, 1)"
      }, 
      "inputs": []
    }, 
    {
      "op": "Convolution", 
      "name": "flow_imagenet/Mixed_5b/Branch_1/Conv3d_0a_1x1/conv_3d/", 
      "attr": {
        "dilate": "(1, 1, 1)", 
        "kernel": "(1, 1, 1)", 
        "no_bias": "True", 
        "num_filter": "160", 
        "pad": "(0, 0, 0)", 
        "stride": "(1, 1, 1)"
      }, 
      "inputs": [[382, 0, 0], [391, 0, 0]]
    }, 
    {
      "op": "null", 
      "name": "flow_imagenet/Mixed_5b/Branch_1/Conv3d_0a_1x1/batch_norm/_gamma", 
      "attr": {
        "eps": "0.001", 
        "fix_gamma": "True", 
        "momentum": "0.001", 
        "use_global_stats": "True"
      }, 
      "inputs": []
    }, 
    {
      "op": "null", 
      "name": "flow_imagenet/Mixed_5b/Branch_1/Conv3d_0a_1x1/batch_norm/_beta", 
      "attr": {
        "eps": "0.001", 
        "fix_gamma": "True", 
        "momentum": "0.001", 
        "use_global_stats": "True"
      }, 
      "inputs": []
    }, 
    {
      "op": "null", 
      "name": "flow_imagenet/Mixed_5b/Branch_1/Conv3d_0a_1x1/batch_norm/_moving_mean", 
      "attr": {
        "__init__": "[\"zero\", {}]", 
        "eps": "0.001", 
        "fix_gamma": "True", 
        "momentum": "0.001", 
        "use_global_stats": "True"
      }, 
      "inputs": []
    }, 
    {
      "op": "null", 
      "name": "flow_imagenet/Mixed_5b/Branch_1/Conv3d_0a_1x1/batch_norm/_moving_var", 
      "attr": {
        "__init__": "[\"one\", {}]", 
        "eps": "0.001", 
        "fix_gamma": "True", 
        "momentum": "0.001", 
        "use_global_stats": "True"
      }, 
      "inputs": []
    }, 
    {
      "op": "BatchNorm", 
      "name": "flow_imagenet/Mixed_5b/Branch_1/Conv3d_0a_1x1/batch_norm/", 
      "attr": {
        "eps": "0.001", 
        "fix_gamma": "True", 
        "momentum": "0.001", 
        "use_global_stats": "True"
      }, 
      "inputs": [[392, 0, 0], [393, 0, 0], [394, 0, 0], [395, 0, 1], [396, 0, 1]]
    }, 
    {
      "op": "Activation", 
      "name": "flow_imagenet/Mixed_5b/Branch_1/Conv3d_0a_1x1/relu/", 
      "attr": {"act_type": "relu"}, 
      "inputs": [[397, 0, 0]]
    }, 
    {
      "op": "null", 
      "name": "flow_imagenet/Mixed_5b/Branch_1/Conv3d_0b_3x3/conv_3d/_weight", 
      "attr": {
        "dilate": "(1, 1, 1)", 
        "kernel": "(3, 3, 3)", 
        "no_bias": "True", 
        "num_filter": "320", 
        "pad": "(1, 1, 1)", 
        "stride": "(1, 1, 1)"
      }, 
      "inputs": []
    }, 
    {
      "op": "Convolution", 
      "name": "flow_imagenet/Mixed_5b/Branch_1/Conv3d_0b_3x3/conv_3d/", 
      "attr": {
        "dilate": "(1, 1, 1)", 
        "kernel": "(3, 3, 3)", 
        "no_bias": "True", 
        "num_filter": "320", 
        "pad": "(1, 1, 1)", 
        "stride": "(1, 1, 1)"
      }, 
      "inputs": [[398, 0, 0], [399, 0, 0]]
    }, 
    {
      "op": "null", 
      "name": "flow_imagenet/Mixed_5b/Branch_1/Conv3d_0b_3x3/batch_norm/_gamma", 
      "attr": {
        "eps": "0.001", 
        "fix_gamma": "True", 
        "momentum": "0.001", 
        "use_global_stats": "True"
      }, 
      "inputs": []
    }, 
    {
      "op": "null", 
      "name": "flow_imagenet/Mixed_5b/Branch_1/Conv3d_0b_3x3/batch_norm/_beta", 
      "attr": {
        "eps": "0.001", 
        "fix_gamma": "True", 
        "momentum": "0.001", 
        "use_global_stats": "True"
      }, 
      "inputs": []
    }, 
    {
      "op": "null", 
      "name": "flow_imagenet/Mixed_5b/Branch_1/Conv3d_0b_3x3/batch_norm/_moving_mean", 
      "attr": {
        "__init__": "[\"zero\", {}]", 
        "eps": "0.001", 
        "fix_gamma": "True", 
        "momentum": "0.001", 
        "use_global_stats": "True"
      }, 
      "inputs": []
    }, 
    {
      "op": "null", 
      "name": "flow_imagenet/Mixed_5b/Branch_1/Conv3d_0b_3x3/batch_norm/_moving_var", 
      "attr": {
        "__init__": "[\"one\", {}]", 
        "eps": "0.001", 
        "fix_gamma": "True", 
        "momentum": "0.001", 
        "use_global_stats": "True"
      }, 
      "inputs": []
    }, 
    {
      "op": "BatchNorm", 
      "name": "flow_imagenet/Mixed_5b/Branch_1/Conv3d_0b_3x3/batch_norm/", 
      "attr": {
        "eps": "0.001", 
        "fix_gamma": "True", 
        "momentum": "0.001", 
        "use_global_stats": "True"
      }, 
      "inputs": [[400, 0, 0], [401, 0, 0], [402, 0, 0], [403, 0, 1], [404, 0, 1]]
    }, 
    {
      "op": "Activation", 
      "name": "flow_imagenet/Mixed_5b/Branch_1/Conv3d_0b_3x3/relu/", 
      "attr": {"act_type": "relu"}, 
      "inputs": [[405, 0, 0]]
    }, 
    {
      "op": "null", 
      "name": "flow_imagenet/Mixed_5b/Branch_2/Conv3d_0a_1x1/conv_3d/_weight", 
      "attr": {
        "dilate": "(1, 1, 1)", 
        "kernel": "(1, 1, 1)", 
        "no_bias": "True", 
        "num_filter": "32", 
        "pad": "(0, 0, 0)", 
        "stride": "(1, 1, 1)"
      }, 
      "inputs": []
    }, 
    {
      "op": "Convolution", 
      "name": "flow_imagenet/Mixed_5b/Branch_2/Conv3d_0a_1x1/conv_3d/", 
      "attr": {
        "dilate": "(1, 1, 1)", 
        "kernel": "(1, 1, 1)", 
        "no_bias": "True", 
        "num_filter": "32", 
        "pad": "(0, 0, 0)", 
        "stride": "(1, 1, 1)"
      }, 
      "inputs": [[382, 0, 0], [407, 0, 0]]
    }, 
    {
      "op": "null", 
      "name": "flow_imagenet/Mixed_5b/Branch_2/Conv3d_0a_1x1/batch_norm/_gamma", 
      "attr": {
        "eps": "0.001", 
        "fix_gamma": "True", 
        "momentum": "0.001", 
        "use_global_stats": "True"
      }, 
      "inputs": []
    }, 
    {
      "op": "null", 
      "name": "flow_imagenet/Mixed_5b/Branch_2/Conv3d_0a_1x1/batch_norm/_beta", 
      "attr": {
        "eps": "0.001", 
        "fix_gamma": "True", 
        "momentum": "0.001", 
        "use_global_stats": "True"
      }, 
      "inputs": []
    }, 
    {
      "op": "null", 
      "name": "flow_imagenet/Mixed_5b/Branch_2/Conv3d_0a_1x1/batch_norm/_moving_mean", 
      "attr": {
        "__init__": "[\"zero\", {}]", 
        "eps": "0.001", 
        "fix_gamma": "True", 
        "momentum": "0.001", 
        "use_global_stats": "True"
      }, 
      "inputs": []
    }, 
    {
      "op": "null", 
      "name": "flow_imagenet/Mixed_5b/Branch_2/Conv3d_0a_1x1/batch_norm/_moving_var", 
      "attr": {
        "__init__": "[\"one\", {}]", 
        "eps": "0.001", 
        "fix_gamma": "True", 
        "momentum": "0.001", 
        "use_global_stats": "True"
      }, 
      "inputs": []
    }, 
    {
      "op": "BatchNorm", 
      "name": "flow_imagenet/Mixed_5b/Branch_2/Conv3d_0a_1x1/batch_norm/", 
      "attr": {
        "eps": "0.001", 
        "fix_gamma": "True", 
        "momentum": "0.001", 
        "use_global_stats": "True"
      }, 
      "inputs": [[408, 0, 0], [409, 0, 0], [410, 0, 0], [411, 0, 1], [412, 0, 1]]
    }, 
    {
      "op": "Activation", 
      "name": "flow_imagenet/Mixed_5b/Branch_2/Conv3d_0a_1x1/relu/", 
      "attr": {"act_type": "relu"}, 
      "inputs": [[413, 0, 0]]
    }, 
    {
      "op": "null", 
      "name": "flow_imagenet/Mixed_5b/Branch_2/Conv3d_0b_3x3/conv_3d/_weight", 
      "attr": {
        "dilate": "(1, 1, 1)", 
        "kernel": "(3, 3, 3)", 
        "no_bias": "True", 
        "num_filter": "128", 
        "pad": "(1, 1, 1)", 
        "stride": "(1, 1, 1)"
      }, 
      "inputs": []
    }, 
    {
      "op": "Convolution", 
      "name": "flow_imagenet/Mixed_5b/Branch_2/Conv3d_0b_3x3/conv_3d/", 
      "attr": {
        "dilate": "(1, 1, 1)", 
        "kernel": "(3, 3, 3)", 
        "no_bias": "True", 
        "num_filter": "128", 
        "pad": "(1, 1, 1)", 
        "stride": "(1, 1, 1)"
      }, 
      "inputs": [[414, 0, 0], [415, 0, 0]]
    }, 
    {
      "op": "null", 
      "name": "flow_imagenet/Mixed_5b/Branch_2/Conv3d_0b_3x3/batch_norm/_gamma", 
      "attr": {
        "eps": "0.001", 
        "fix_gamma": "True", 
        "momentum": "0.001", 
        "use_global_stats": "True"
      }, 
      "inputs": []
    }, 
    {
      "op": "null", 
      "name": "flow_imagenet/Mixed_5b/Branch_2/Conv3d_0b_3x3/batch_norm/_beta", 
      "attr": {
        "eps": "0.001", 
        "fix_gamma": "True", 
        "momentum": "0.001", 
        "use_global_stats": "True"
      }, 
      "inputs": []
    }, 
    {
      "op": "null", 
      "name": "flow_imagenet/Mixed_5b/Branch_2/Conv3d_0b_3x3/batch_norm/_moving_mean", 
      "attr": {
        "__init__": "[\"zero\", {}]", 
        "eps": "0.001", 
        "fix_gamma": "True", 
        "momentum": "0.001", 
        "use_global_stats": "True"
      }, 
      "inputs": []
    }, 
    {
      "op": "null", 
      "name": "flow_imagenet/Mixed_5b/Branch_2/Conv3d_0b_3x3/batch_norm/_moving_var", 
      "attr": {
        "__init__": "[\"one\", {}]", 
        "eps": "0.001", 
        "fix_gamma": "True", 
        "momentum": "0.001", 
        "use_global_stats": "True"
      }, 
      "inputs": []
    }, 
    {
      "op": "BatchNorm", 
      "name": "flow_imagenet/Mixed_5b/Branch_2/Conv3d_0b_3x3/batch_norm/", 
      "attr": {
        "eps": "0.001", 
        "fix_gamma": "True", 
        "momentum": "0.001", 
        "use_global_stats": "True"
      }, 
      "inputs": [[416, 0, 0], [417, 0, 0], [418, 0, 0], [419, 0, 1], [420, 0, 1]]
    }, 
    {
      "op": "Activation", 
      "name": "flow_imagenet/Mixed_5b/Branch_2/Conv3d_0b_3x3/relu/", 
      "attr": {"act_type": "relu"}, 
      "inputs": [[421, 0, 0]]
    }, 
    {
      "op": "Pooling", 
      "name": "flow_imagenet/Mixed_5b/Branch_2/MaxPool3d_0a_3x3", 
      "attr": {
        "kernel": "(3, 3, 3)", 
        "pad": "(1, 1, 1)", 
        "pool_type": "max", 
        "pooling_convention": "valid", 
        "stride": "(1, 1, 1)"
      }, 
      "inputs": [[382, 0, 0]]
    }, 
    {
      "op": "null", 
      "name": "flow_imagenet/Mixed_5b/Branch_3/Conv3d_0b_1x1/conv_3d/_weight", 
      "attr": {
        "dilate": "(1, 1, 1)", 
        "kernel": "(1, 1, 1)", 
        "no_bias": "True", 
        "num_filter": "128", 
        "pad": "(0, 0, 0)", 
        "stride": "(1, 1, 1)"
      }, 
      "inputs": []
    }, 
    {
      "op": "Convolution", 
      "name": "flow_imagenet/Mixed_5b/Branch_3/Conv3d_0b_1x1/conv_3d/", 
      "attr": {
        "dilate": "(1, 1, 1)", 
        "kernel": "(1, 1, 1)", 
        "no_bias": "True", 
        "num_filter": "128", 
        "pad": "(0, 0, 0)", 
        "stride": "(1, 1, 1)"
      }, 
      "inputs": [[423, 0, 0], [424, 0, 0]]
    }, 
    {
      "op": "null", 
      "name": "flow_imagenet/Mixed_5b/Branch_3/Conv3d_0b_1x1/batch_norm/_gamma", 
      "attr": {
        "eps": "0.001", 
        "fix_gamma": "True", 
        "momentum": "0.001", 
        "use_global_stats": "True"
      }, 
      "inputs": []
    }, 
    {
      "op": "null", 
      "name": "flow_imagenet/Mixed_5b/Branch_3/Conv3d_0b_1x1/batch_norm/_beta", 
      "attr": {
        "eps": "0.001", 
        "fix_gamma": "True", 
        "momentum": "0.001", 
        "use_global_stats": "True"
      }, 
      "inputs": []
    }, 
    {
      "op": "null", 
      "name": "flow_imagenet/Mixed_5b/Branch_3/Conv3d_0b_1x1/batch_norm/_moving_mean", 
      "attr": {
        "__init__": "[\"zero\", {}]", 
        "eps": "0.001", 
        "fix_gamma": "True", 
        "momentum": "0.001", 
        "use_global_stats": "True"
      }, 
      "inputs": []
    }, 
    {
      "op": "null", 
      "name": "flow_imagenet/Mixed_5b/Branch_3/Conv3d_0b_1x1/batch_norm/_moving_var", 
      "attr": {
        "__init__": "[\"one\", {}]", 
        "eps": "0.001", 
        "fix_gamma": "True", 
        "momentum": "0.001", 
        "use_global_stats": "True"
      }, 
      "inputs": []
    }, 
    {
      "op": "BatchNorm", 
      "name": "flow_imagenet/Mixed_5b/Branch_3/Conv3d_0b_1x1/batch_norm/", 
      "attr": {
        "eps": "0.001", 
        "fix_gamma": "True", 
        "momentum": "0.001", 
        "use_global_stats": "True"
      }, 
      "inputs": [[425, 0, 0], [426, 0, 0], [427, 0, 0], [428, 0, 1], [429, 0, 1]]
    }, 
    {
      "op": "Activation", 
      "name": "flow_imagenet/Mixed_5b/Branch_3/Conv3d_0b_1x1/relu/", 
      "attr": {"act_type": "relu"}, 
      "inputs": [[430, 0, 0]]
    }, 
    {
      "op": "Concat", 
      "name": "flow_imagenet/Mixed_5b/Concat", 
      "attr": {
        "dim": "1", 
        "num_args": "4"
      }, 
      "inputs": [[390, 0, 0], [406, 0, 0], [422, 0, 0], [431, 0, 0]]
    }, 
    {
      "op": "null", 
      "name": "flow_imagenet/Mixed_5c/Branch_0/Conv3d_0a_1x1/conv_3d/_weight", 
      "attr": {
        "dilate": "(1, 1, 1)", 
        "kernel": "(1, 1, 1)", 
        "no_bias": "True", 
        "num_filter": "384", 
        "pad": "(0, 0, 0)", 
        "stride": "(1, 1, 1)"
      }, 
      "inputs": []
    }, 
    {
      "op": "Convolution", 
      "name": "flow_imagenet/Mixed_5c/Branch_0/Conv3d_0a_1x1/conv_3d/", 
      "attr": {
        "dilate": "(1, 1, 1)", 
        "kernel": "(1, 1, 1)", 
        "no_bias": "True", 
        "num_filter": "384", 
        "pad": "(0, 0, 0)", 
        "stride": "(1, 1, 1)"
      }, 
      "inputs": [[432, 0, 0], [433, 0, 0]]
    }, 
    {
      "op": "null", 
      "name": "flow_imagenet/Mixed_5c/Branch_0/Conv3d_0a_1x1/batch_norm/_gamma", 
      "attr": {
        "eps": "0.001", 
        "fix_gamma": "True", 
        "momentum": "0.001", 
        "use_global_stats": "True"
      }, 
      "inputs": []
    }, 
    {
      "op": "null", 
      "name": "flow_imagenet/Mixed_5c/Branch_0/Conv3d_0a_1x1/batch_norm/_beta", 
      "attr": {
        "eps": "0.001", 
        "fix_gamma": "True", 
        "momentum": "0.001", 
        "use_global_stats": "True"
      }, 
      "inputs": []
    }, 
    {
      "op": "null", 
      "name": "flow_imagenet/Mixed_5c/Branch_0/Conv3d_0a_1x1/batch_norm/_moving_mean", 
      "attr": {
        "__init__": "[\"zero\", {}]", 
        "eps": "0.001", 
        "fix_gamma": "True", 
        "momentum": "0.001", 
        "use_global_stats": "True"
      }, 
      "inputs": []
    }, 
    {
      "op": "null", 
      "name": "flow_imagenet/Mixed_5c/Branch_0/Conv3d_0a_1x1/batch_norm/_moving_var", 
      "attr": {
        "__init__": "[\"one\", {}]", 
        "eps": "0.001", 
        "fix_gamma": "True", 
        "momentum": "0.001", 
        "use_global_stats": "True"
      }, 
      "inputs": []
    }, 
    {
      "op": "BatchNorm", 
      "name": "flow_imagenet/Mixed_5c/Branch_0/Conv3d_0a_1x1/batch_norm/", 
      "attr": {
        "eps": "0.001", 
        "fix_gamma": "True", 
        "momentum": "0.001", 
        "use_global_stats": "True"
      }, 
      "inputs": [[434, 0, 0], [435, 0, 0], [436, 0, 0], [437, 0, 1], [438, 0, 1]]
    }, 
    {
      "op": "Activation", 
      "name": "flow_imagenet/Mixed_5c/Branch_0/Conv3d_0a_1x1/relu/", 
      "attr": {"act_type": "relu"}, 
      "inputs": [[439, 0, 0]]
    }, 
    {
      "op": "null", 
      "name": "flow_imagenet/Mixed_5c/Branch_1/Conv3d_0a_1x1/conv_3d/_weight", 
      "attr": {
        "dilate": "(1, 1, 1)", 
        "kernel": "(1, 1, 1)", 
        "no_bias": "True", 
        "num_filter": "192", 
        "pad": "(0, 0, 0)", 
        "stride": "(1, 1, 1)"
      }, 
      "inputs": []
    }, 
    {
      "op": "Convolution", 
      "name": "flow_imagenet/Mixed_5c/Branch_1/Conv3d_0a_1x1/conv_3d/", 
      "attr": {
        "dilate": "(1, 1, 1)", 
        "kernel": "(1, 1, 1)", 
        "no_bias": "True", 
        "num_filter": "192", 
        "pad": "(0, 0, 0)", 
        "stride": "(1, 1, 1)"
      }, 
      "inputs": [[432, 0, 0], [441, 0, 0]]
    }, 
    {
      "op": "null", 
      "name": "flow_imagenet/Mixed_5c/Branch_1/Conv3d_0a_1x1/batch_norm/_gamma", 
      "attr": {
        "eps": "0.001", 
        "fix_gamma": "True", 
        "momentum": "0.001", 
        "use_global_stats": "True"
      }, 
      "inputs": []
    }, 
    {
      "op": "null", 
      "name": "flow_imagenet/Mixed_5c/Branch_1/Conv3d_0a_1x1/batch_norm/_beta", 
      "attr": {
        "eps": "0.001", 
        "fix_gamma": "True", 
        "momentum": "0.001", 
        "use_global_stats": "True"
      }, 
      "inputs": []
    }, 
    {
      "op": "null", 
      "name": "flow_imagenet/Mixed_5c/Branch_1/Conv3d_0a_1x1/batch_norm/_moving_mean", 
      "attr": {
        "__init__": "[\"zero\", {}]", 
        "eps": "0.001", 
        "fix_gamma": "True", 
        "momentum": "0.001", 
        "use_global_stats": "True"
      }, 
      "inputs": []
    }, 
    {
      "op": "null", 
      "name": "flow_imagenet/Mixed_5c/Branch_1/Conv3d_0a_1x1/batch_norm/_moving_var", 
      "attr": {
        "__init__": "[\"one\", {}]", 
        "eps": "0.001", 
        "fix_gamma": "True", 
        "momentum": "0.001", 
        "use_global_stats": "True"
      }, 
      "inputs": []
    }, 
    {
      "op": "BatchNorm", 
      "name": "flow_imagenet/Mixed_5c/Branch_1/Conv3d_0a_1x1/batch_norm/", 
      "attr": {
        "eps": "0.001", 
        "fix_gamma": "True", 
        "momentum": "0.001", 
        "use_global_stats": "True"
      }, 
      "inputs": [[442, 0, 0], [443, 0, 0], [444, 0, 0], [445, 0, 1], [446, 0, 1]]
    }, 
    {
      "op": "Activation", 
      "name": "flow_imagenet/Mixed_5c/Branch_1/Conv3d_0a_1x1/relu/", 
      "attr": {"act_type": "relu"}, 
      "inputs": [[447, 0, 0]]
    }, 
    {
      "op": "null", 
      "name": "flow_imagenet/Mixed_5c/Branch_1/Conv3d_0b_3x3/conv_3d/_weight", 
      "attr": {
        "dilate": "(1, 1, 1)", 
        "kernel": "(3, 3, 3)", 
        "no_bias": "True", 
        "num_filter": "384", 
        "pad": "(1, 1, 1)", 
        "stride": "(1, 1, 1)"
      }, 
      "inputs": []
    }, 
    {
      "op": "Convolution", 
      "name": "flow_imagenet/Mixed_5c/Branch_1/Conv3d_0b_3x3/conv_3d/", 
      "attr": {
        "dilate": "(1, 1, 1)", 
        "kernel": "(3, 3, 3)", 
        "no_bias": "True", 
        "num_filter": "384", 
        "pad": "(1, 1, 1)", 
        "stride": "(1, 1, 1)"
      }, 
      "inputs": [[448, 0, 0], [449, 0, 0]]
    }, 
    {
      "op": "null", 
      "name": "flow_imagenet/Mixed_5c/Branch_1/Conv3d_0b_3x3/batch_norm/_gamma", 
      "attr": {
        "eps": "0.001", 
        "fix_gamma": "True", 
        "momentum": "0.001", 
        "use_global_stats": "True"
      }, 
      "inputs": []
    }, 
    {
      "op": "null", 
      "name": "flow_imagenet/Mixed_5c/Branch_1/Conv3d_0b_3x3/batch_norm/_beta", 
      "attr": {
        "eps": "0.001", 
        "fix_gamma": "True", 
        "momentum": "0.001", 
        "use_global_stats": "True"
      }, 
      "inputs": []
    }, 
    {
      "op": "null", 
      "name": "flow_imagenet/Mixed_5c/Branch_1/Conv3d_0b_3x3/batch_norm/_moving_mean", 
      "attr": {
        "__init__": "[\"zero\", {}]", 
        "eps": "0.001", 
        "fix_gamma": "True", 
        "momentum": "0.001", 
        "use_global_stats": "True"
      }, 
      "inputs": []
    }, 
    {
      "op": "null", 
      "name": "flow_imagenet/Mixed_5c/Branch_1/Conv3d_0b_3x3/batch_norm/_moving_var", 
      "attr": {
        "__init__": "[\"one\", {}]", 
        "eps": "0.001", 
        "fix_gamma": "True", 
        "momentum": "0.001", 
        "use_global_stats": "True"
      }, 
      "inputs": []
    }, 
    {
      "op": "BatchNorm", 
      "name": "flow_imagenet/Mixed_5c/Branch_1/Conv3d_0b_3x3/batch_norm/", 
      "attr": {
        "eps": "0.001", 
        "fix_gamma": "True", 
        "momentum": "0.001", 
        "use_global_stats": "True"
      }, 
      "inputs": [[450, 0, 0], [451, 0, 0], [452, 0, 0], [453, 0, 1], [454, 0, 1]]
    }, 
    {
      "op": "Activation", 
      "name": "flow_imagenet/Mixed_5c/Branch_1/Conv3d_0b_3x3/relu/", 
      "attr": {"act_type": "relu"}, 
      "inputs": [[455, 0, 0]]
    }, 
    {
      "op": "null", 
      "name": "flow_imagenet/Mixed_5c/Branch_2/Conv3d_0a_1x1/conv_3d/_weight", 
      "attr": {
        "dilate": "(1, 1, 1)", 
        "kernel": "(1, 1, 1)", 
        "no_bias": "True", 
        "num_filter": "48", 
        "pad": "(0, 0, 0)", 
        "stride": "(1, 1, 1)"
      }, 
      "inputs": []
    }, 
    {
      "op": "Convolution", 
      "name": "flow_imagenet/Mixed_5c/Branch_2/Conv3d_0a_1x1/conv_3d/", 
      "attr": {
        "dilate": "(1, 1, 1)", 
        "kernel": "(1, 1, 1)", 
        "no_bias": "True", 
        "num_filter": "48", 
        "pad": "(0, 0, 0)", 
        "stride": "(1, 1, 1)"
      }, 
      "inputs": [[432, 0, 0], [457, 0, 0]]
    }, 
    {
      "op": "null", 
      "name": "flow_imagenet/Mixed_5c/Branch_2/Conv3d_0a_1x1/batch_norm/_gamma", 
      "attr": {
        "eps": "0.001", 
        "fix_gamma": "True", 
        "momentum": "0.001", 
        "use_global_stats": "True"
      }, 
      "inputs": []
    }, 
    {
      "op": "null", 
      "name": "flow_imagenet/Mixed_5c/Branch_2/Conv3d_0a_1x1/batch_norm/_beta", 
      "attr": {
        "eps": "0.001", 
        "fix_gamma": "True", 
        "momentum": "0.001", 
        "use_global_stats": "True"
      }, 
      "inputs": []
    }, 
    {
      "op": "null", 
      "name": "flow_imagenet/Mixed_5c/Branch_2/Conv3d_0a_1x1/batch_norm/_moving_mean", 
      "attr": {
        "__init__": "[\"zero\", {}]", 
        "eps": "0.001", 
        "fix_gamma": "True", 
        "momentum": "0.001", 
        "use_global_stats": "True"
      }, 
      "inputs": []
    }, 
    {
      "op": "null", 
      "name": "flow_imagenet/Mixed_5c/Branch_2/Conv3d_0a_1x1/batch_norm/_moving_var", 
      "attr": {
        "__init__": "[\"one\", {}]", 
        "eps": "0.001", 
        "fix_gamma": "True", 
        "momentum": "0.001", 
        "use_global_stats": "True"
      }, 
      "inputs": []
    }, 
    {
      "op": "BatchNorm", 
      "name": "flow_imagenet/Mixed_5c/Branch_2/Conv3d_0a_1x1/batch_norm/", 
      "attr": {
        "eps": "0.001", 
        "fix_gamma": "True", 
        "momentum": "0.001", 
        "use_global_stats": "True"
      }, 
      "inputs": [[458, 0, 0], [459, 0, 0], [460, 0, 0], [461, 0, 1], [462, 0, 1]]
    }, 
    {
      "op": "Activation", 
      "name": "flow_imagenet/Mixed_5c/Branch_2/Conv3d_0a_1x1/relu/", 
      "attr": {"act_type": "relu"}, 
      "inputs": [[463, 0, 0]]
    }, 
    {
      "op": "null", 
      "name": "flow_imagenet/Mixed_5c/Branch_2/Conv3d_0b_3x3/conv_3d/_weight", 
      "attr": {
        "dilate": "(1, 1, 1)", 
        "kernel": "(3, 3, 3)", 
        "no_bias": "True", 
        "num_filter": "128", 
        "pad": "(1, 1, 1)", 
        "stride": "(1, 1, 1)"
      }, 
      "inputs": []
    }, 
    {
      "op": "Convolution", 
      "name": "flow_imagenet/Mixed_5c/Branch_2/Conv3d_0b_3x3/conv_3d/", 
      "attr": {
        "dilate": "(1, 1, 1)", 
        "kernel": "(3, 3, 3)", 
        "no_bias": "True", 
        "num_filter": "128", 
        "pad": "(1, 1, 1)", 
        "stride": "(1, 1, 1)"
      }, 
      "inputs": [[464, 0, 0], [465, 0, 0]]
    }, 
    {
      "op": "null", 
      "name": "flow_imagenet/Mixed_5c/Branch_2/Conv3d_0b_3x3/batch_norm/_gamma", 
      "attr": {
        "eps": "0.001", 
        "fix_gamma": "True", 
        "momentum": "0.001", 
        "use_global_stats": "True"
      }, 
      "inputs": []
    }, 
    {
      "op": "null", 
      "name": "flow_imagenet/Mixed_5c/Branch_2/Conv3d_0b_3x3/batch_norm/_beta", 
      "attr": {
        "eps": "0.001", 
        "fix_gamma": "True", 
        "momentum": "0.001", 
        "use_global_stats": "True"
      }, 
      "inputs": []
    }, 
    {
      "op": "null", 
      "name": "flow_imagenet/Mixed_5c/Branch_2/Conv3d_0b_3x3/batch_norm/_moving_mean", 
      "attr": {
        "__init__": "[\"zero\", {}]", 
        "eps": "0.001", 
        "fix_gamma": "True", 
        "momentum": "0.001", 
        "use_global_stats": "True"
      }, 
      "inputs": []
    }, 
    {
      "op": "null", 
      "name": "flow_imagenet/Mixed_5c/Branch_2/Conv3d_0b_3x3/batch_norm/_moving_var", 
      "attr": {
        "__init__": "[\"one\", {}]", 
        "eps": "0.001", 
        "fix_gamma": "True", 
        "momentum": "0.001", 
        "use_global_stats": "True"
      }, 
      "inputs": []
    }, 
    {
      "op": "BatchNorm", 
      "name": "flow_imagenet/Mixed_5c/Branch_2/Conv3d_0b_3x3/batch_norm/", 
      "attr": {
        "eps": "0.001", 
        "fix_gamma": "True", 
        "momentum": "0.001", 
        "use_global_stats": "True"
      }, 
      "inputs": [[466, 0, 0], [467, 0, 0], [468, 0, 0], [469, 0, 1], [470, 0, 1]]
    }, 
    {
      "op": "Activation", 
      "name": "flow_imagenet/Mixed_5c/Branch_2/Conv3d_0b_3x3/relu/", 
      "attr": {"act_type": "relu"}, 
      "inputs": [[471, 0, 0]]
    }, 
    {
      "op": "Pooling", 
      "name": "flow_imagenet/Mixed_5c/Branch_2/MaxPool3d_0a_3x3", 
      "attr": {
        "kernel": "(3, 3, 3)", 
        "pad": "(1, 1, 1)", 
        "pool_type": "max", 
        "pooling_convention": "valid", 
        "stride": "(1, 1, 1)"
      }, 
      "inputs": [[432, 0, 0]]
    }, 
    {
      "op": "null", 
      "name": "flow_imagenet/Mixed_5c/Branch_3/Conv3d_0b_1x1/conv_3d/_weight", 
      "attr": {
        "dilate": "(1, 1, 1)", 
        "kernel": "(1, 1, 1)", 
        "no_bias": "True", 
        "num_filter": "128", 
        "pad": "(0, 0, 0)", 
        "stride": "(1, 1, 1)"
      }, 
      "inputs": []
    }, 
    {
      "op": "Convolution", 
      "name": "flow_imagenet/Mixed_5c/Branch_3/Conv3d_0b_1x1/conv_3d/", 
      "attr": {
        "dilate": "(1, 1, 1)", 
        "kernel": "(1, 1, 1)", 
        "no_bias": "True", 
        "num_filter": "128", 
        "pad": "(0, 0, 0)", 
        "stride": "(1, 1, 1)"
      }, 
      "inputs": [[473, 0, 0], [474, 0, 0]]
    }, 
    {
      "op": "null", 
      "name": "flow_imagenet/Mixed_5c/Branch_3/Conv3d_0b_1x1/batch_norm/_gamma", 
      "attr": {
        "eps": "0.001", 
        "fix_gamma": "True", 
        "momentum": "0.001", 
        "use_global_stats": "True"
      }, 
      "inputs": []
    }, 
    {
      "op": "null", 
      "name": "flow_imagenet/Mixed_5c/Branch_3/Conv3d_0b_1x1/batch_norm/_beta", 
      "attr": {
        "eps": "0.001", 
        "fix_gamma": "True", 
        "momentum": "0.001", 
        "use_global_stats": "True"
      }, 
      "inputs": []
    }, 
    {
      "op": "null", 
      "name": "flow_imagenet/Mixed_5c/Branch_3/Conv3d_0b_1x1/batch_norm/_moving_mean", 
      "attr": {
        "__init__": "[\"zero\", {}]", 
        "eps": "0.001", 
        "fix_gamma": "True", 
        "momentum": "0.001", 
        "use_global_stats": "True"
      }, 
      "inputs": []
    }, 
    {
      "op": "null", 
      "name": "flow_imagenet/Mixed_5c/Branch_3/Conv3d_0b_1x1/batch_norm/_moving_var", 
      "attr": {
        "__init__": "[\"one\", {}]", 
        "eps": "0.001", 
        "fix_gamma": "True", 
        "momentum": "0.001", 
        "use_global_stats": "True"
      }, 
      "inputs": []
    }, 
    {
      "op": "BatchNorm", 
      "name": "flow_imagenet/Mixed_5c/Branch_3/Conv3d_0b_1x1/batch_norm/", 
      "attr": {
        "eps": "0.001", 
        "fix_gamma": "True", 
        "momentum": "0.001", 
        "use_global_stats": "True"
      }, 
      "inputs": [[475, 0, 0], [476, 0, 0], [477, 0, 0], [478, 0, 1], [479, 0, 1]]
    }, 
    {
      "op": "Activation", 
      "name": "flow_imagenet/Mixed_5c/Branch_3/Conv3d_0b_1x1/relu/", 
      "attr": {"act_type": "relu"}, 
      "inputs": [[480, 0, 0]]
    }, 
    {
      "op": "Concat", 
      "name": "flow_imagenet/Mixed_5c/Concat", 
      "attr": {
        "dim": "1", 
        "num_args": "4"
      }, 
      "inputs": [[440, 0, 0], [456, 0, 0], [472, 0, 0], [481, 0, 0]]
    }, 
    {
      "op": "Pooling", 
      "name": "flow_imagenet/Logits/average_pooling/", 
      "attr": {
        "global_pool": "False", 
        "kernel": "(2, 7, 7)", 
        "pool_type": "avg", 
        "stride": "(1, 1, 1)"
      }, 
      "inputs": [[482, 0, 0]]
    }, 
    {
      "op": "Dropout", 
      "name": "flow_imagenet/Logits/drop_out/", 
      "inputs": [[483, 0, 0]]
    }, 
    {
      "op": "null", 
      "name": "flow_imagenet/Logits/Conv3d_0c_1x1/conv_3d/_weight", 
      "attr": {
        "kernel": "(1, 1, 1)", 
        "num_filter": "400", 
        "stride": "(1, 1, 1)"
      }, 
      "inputs": []
    }, 
    {
      "op": "null", 
      "name": "flow_imagenet/Logits/Conv3d_0c_1x1/conv_3d/_bias", 
      "attr": {
        "kernel": "(1, 1, 1)", 
        "num_filter": "400", 
        "stride": "(1, 1, 1)"
      }, 
      "inputs": []
    }, 
    {
      "op": "Convolution", 
      "name": "flow_imagenet/Logits/Conv3d_0c_1x1/conv_3d/", 
      "attr": {
        "kernel": "(1, 1, 1)", 
        "num_filter": "400", 
        "stride": "(1, 1, 1)"
      }, 
      "inputs": [[484, 0, 0], [485, 0, 0], [486, 0, 0]]
    }, 
    {
      "op": "SliceChannel", 
      "name": "split0", 
      "attr": {
        "axis": "3", 
        "num_outputs": "1", 
        "squeeze_axis": "True"
      }, 
      "inputs": [[487, 0, 0]]
    }, 
    {
      "op": "SliceChannel", 
      "name": "split1", 
      "attr": {
        "axis": "3", 
        "num_outputs": "1", 
        "squeeze_axis": "True"
      }, 
      "inputs": [[488, 0, 0]]
    }
  ], 
  "arg_nodes": [
    0, 
    2, 
    4, 
    5, 
    6, 
    7, 
    12, 
    14, 
    15, 
    16, 
    17, 
    20, 
    22, 
    23, 
    24, 
    25, 
    30, 
    32, 
    33, 
    34, 
    35, 
    38, 
    40, 
    41, 
    42, 
    43, 
    46, 
    48, 
    49, 
    50, 
    51, 
    54, 
    56, 
    57, 
    58, 
    59, 
    62, 
    64, 
    65, 
    66, 
    67, 
    71, 
    73, 
    74, 
    75, 
    76, 
    80, 
    82, 
    83, 
    84, 
    85, 
    88, 
    90, 
    91, 
    92, 
    93, 
    96, 
    98, 
    99, 
    100, 
    101, 
    104, 
    106, 
    107, 
    108, 
    109, 
    112, 
    114, 
    115, 
    116, 
    117, 
    121, 
    123, 
    124, 
    125, 
    126, 
    132, 
    134, 
    135, 
    136, 
    137, 
    140, 
    142, 
    143, 
    144, 
    145, 
    148, 
    150, 
    151, 
    152, 
    153, 
    156, 
    158, 
    159, 
    160, 
    161, 
    164, 
    166, 
    167, 
    168, 
    169, 
    173, 
    175, 
    176, 
    177, 
    178, 
    182, 
    184, 
    185, 
    186, 
    187, 
    190, 
    192, 
    193, 
    194, 
    195, 
    198, 
    200, 
    201, 
    202, 
    203, 
    206, 
    208, 
    209, 
    210, 
    211, 
    214, 
    216, 
    217, 
    218, 
    219, 
    223, 
    225, 
    226, 
    227, 
    228, 
    232, 
    234, 
    235, 
    236, 
    237, 
    240, 
    242, 
    243, 
    244, 
    245, 
    248, 
    250, 
    251, 
    252, 
    253, 
    256, 
    258, 
    259, 
    260, 
    261, 
    264, 
    266, 
    267, 
    268, 
    269, 
    273, 
    275, 
    276, 
    277, 
    278, 
    282, 
    284, 
    285, 
    286, 
    287, 
    290, 
    292, 
    293, 
    294, 
    295, 
    298, 
    300, 
    301, 
    302, 
    303, 
    306, 
    308, 
    309, 
    310, 
    311, 
    314, 
    316, 
    317, 
    318, 
    319, 
    323, 
    325, 
    326, 
    327, 
    328, 
    332, 
    334, 
    335, 
    336, 
    337, 
    340, 
    342, 
    343, 
    344, 
    345, 
    348, 
    350, 
    351, 
    352, 
    353, 
    356, 
    358, 
    359, 
    360, 
    361, 
    364, 
    366, 
    367, 
    368, 
    369, 
    373, 
    375, 
    376, 
    377, 
    378, 
    383, 
    385, 
    386, 
    387, 
    388, 
    391, 
    393, 
    394, 
    395, 
    396, 
    399, 
    401, 
    402, 
    403, 
    404, 
    407, 
    409, 
    410, 
    411, 
    412, 
    415, 
    417, 
    418, 
    419, 
    420, 
    424, 
    426, 
    427, 
    428, 
    429, 
    433, 
    435, 
    436, 
    437, 
    438, 
    441, 
    443, 
    444, 
    445, 
    446, 
    449, 
    451, 
    452, 
    453, 
    454, 
    457, 
    459, 
    460, 
    461, 
    462, 
    465, 
    467, 
    468, 
    469, 
    470, 
    474, 
    476, 
    477, 
    478, 
    479, 
    485, 
    486
  ], 
  "node_row_ptr": [
    0, 
    1, 
    2, 
    3, 
    4, 
    5, 
    6, 
    7, 
    8, 
    11, 
    12, 
    13, 
    14, 
    15, 
    16, 
    17, 
    18, 
    19, 
    20, 
    23, 
    24, 
    25, 
    26, 
    27, 
    28, 
    29, 
    30, 
    33, 
    34, 
    35, 
    36, 
    37, 
    38, 
    39, 
    40, 
    41, 
    42, 
    45, 
    46, 
    47, 
    48, 
    49, 
    50, 
    51, 
    52, 
    55, 
    56, 
    57, 
    58, 
    59, 
    60, 
    61, 
    62, 
    65, 
    66, 
    67, 
    68, 
    69, 
    70, 
    71, 
    72, 
    75, 
    76, 
    77, 
    78, 
    79, 
    80, 
    81, 
    82, 
    85, 
    86, 
    87, 
    88, 
    89, 
    90, 
    91, 
    92, 
    93, 
    96, 
    97, 
    98, 
    99, 
    100, 
    101, 
    102, 
    103, 
    104, 
    107, 
    108, 
    109, 
    110, 
    111, 
    112, 
    113, 
    114, 
    117, 
    118, 
    119, 
    120, 
    121, 
    122, 
    123, 
    124, 
    127, 
    128, 
    129, 
    130, 
    131, 
    132, 
    133, 
    134, 
    137, 
    138, 
    139, 
    140, 
    141, 
    142, 
    143, 
    144, 
    147, 
    148, 
    149, 
    150, 
    151, 
    152, 
    153, 
    154, 
    155, 
    158, 
    159, 
    160, 
    161, 
    162, 
    163, 
    164, 
    165, 
    166, 
    167, 
    168, 
    171, 
    172, 
    173, 
    174, 
    175, 
    176, 
    177, 
    178, 
    181, 
    182, 
    183, 
    184, 
    185, 
    186, 
    187, 
    188, 
    191, 
    192, 
    193, 
    194, 
    195, 
    196, 
    197, 
    198, 
    201, 
    202, 
    203, 
    204, 
    205, 
    206, 
    207, 
    208, 
    211, 
    212, 
    213, 
    214, 
    215, 
    216, 
    217, 
    218, 
    219, 
    222, 
    223, 
    224, 
    225, 
    226, 
    227, 
    228, 
    229, 
    230, 
    233, 
    234, 
    235, 
    236, 
    237, 
    238, 
    239, 
    240, 
    243, 
    244, 
    245, 
    246, 
    247, 
    248, 
    249, 
    250, 
    253, 
    254, 
    255, 
    256, 
    257, 
    258, 
    259, 
    260, 
    263, 
    264, 
    265, 
    266, 
    267, 
    268, 
    269, 
    270, 
    273, 
    274, 
    275, 
    276, 
    277, 
    278, 
    279, 
    280, 
    281, 
    284, 
    285, 
    286, 
    287, 
    288, 
    289, 
    290, 
    291, 
    292, 
    295, 
    296, 
    297, 
    298, 
    299, 
    300, 
    301, 
    302, 
    305, 
    306, 
    307, 
    308, 
    309, 
    310, 
    311, 
    312, 
    315, 
    316, 
    317, 
    318, 
    319, 
    320, 
    321, 
    322, 
    325, 
    326, 
    327, 
    328, 
    329, 
    330, 
    331, 
    332, 
    335, 
    336, 
    337, 
    338, 
    339, 
    340, 
    341, 
    342, 
    343, 
    346, 
    347, 
    348, 
    349, 
    350, 
    351, 
    352, 
    353, 
    354, 
    357, 
    358, 
    359, 
    360, 
    361, 
    362, 
    363, 
    364, 
    367, 
    368, 
    369, 
    370, 
    371, 
    372, 
    373, 
    374, 
    377, 
    378, 
    379, 
    380, 
    381, 
    382, 
    383, 
    384, 
    387, 
    388, 
    389, 
    390, 
    391, 
    392, 
    393, 
    394, 
    397, 
    398, 
    399, 
    400, 
    401, 
    402, 
    403, 
    404, 
    405, 
    408, 
    409, 
    410, 
    411, 
    412, 
    413, 
    414, 
    415, 
    416, 
    419, 
    420, 
    421, 
    422, 
    423, 
    424, 
    425, 
    426, 
    429, 
    430, 
    431, 
    432, 
    433, 
    434, 
    435, 
    436, 
    439, 
    440, 
    441, 
    442, 
    443, 
    444, 
    445, 
    446, 
    449, 
    450, 
    451, 
    452, 
    453, 
    454, 
    455, 
    456, 
    459, 
    460, 
    461, 
    462, 
    463, 
    464, 
    465, 
    466, 
    467, 
    470, 
    471, 
    472, 
    473, 
    474, 
    475, 
    476, 
    477, 
    478, 
    479, 
    482, 
    483, 
    484, 
    485, 
    486, 
    487, 
    488, 
    489, 
    492, 
    493, 
    494, 
    495, 
    496, 
    497, 
    498, 
    499, 
    502, 
    503, 
    504, 
    505, 
    506, 
    507, 
    508, 
    509, 
    512, 
    513, 
    514, 
    515, 
    516, 
    517, 
    518, 
    519, 
    522, 
    523, 
    524, 
    525, 
    526, 
    527, 
    528, 
    529, 
    530, 
    533, 
    534, 
    535, 
    536, 
    537, 
    538, 
    539, 
    540, 
    541, 
    544, 
    545, 
    546, 
    547, 
    548, 
    549, 
    550, 
    551, 
    554, 
    555, 
    556, 
    557, 
    558, 
    559, 
    560, 
    561, 
    564, 
    565, 
    566, 
    567, 
    568, 
    569, 
    570, 
    571, 
    574, 
    575, 
    576, 
    577, 
    578, 
    579, 
    580, 
    581, 
    584, 
    585, 
    586, 
    587, 
    588, 
    589, 
    590, 
    591, 
    592, 
    595, 
    596, 
    597, 
    598, 
    600, 
    601, 
    602, 
    603, 
    604, 
    605
  ], 
  "heads": [[489, 0, 0]], 
  "attrs": {"mxnet_version": ["int", 1201]}
}